neuralNetworkWeights/neural_network_scenario303_5_noise_0_00_epoch_0004.pt (torch_old, 107080 bytes, 10 tensors)

net.0.weight f4 [100, 128]
0.015428253 -0.039623663 -0.06591159 0.0076781334 0.04989237 0.050724827 0.0045417054 -0.09417827
-0.09531194 -0.00915215 0.017854912 -0.07044748 0.02184104 -0.04962551 0.035919745 -0.07098377
0.049685664 0.050696306 -0.045297433 0.005201498 -0.0075058583 -0.0109811695 -0.09004566 -0.062484924
-0.032967415 -0.07644818 -0.03261443 -0.09229896 0.04092924 0.04024544 0.0060036173 0.05957596
-0.07575981 0.0045792987 -0.028769385 -0.049445912 -0.0022595522 -0.04125092 -0.039274417 0.004374117
-0.058560036 -0.014993815 -0.06488787 0.003247532 -0.09668632 0.05299294 0.062390354 -0.009513903
0.04524561 -0.015708823 -0.04562812 0.03629115 0.0044984994 0.029105505 -0.05728353 0.07252786
0.028245065 -0.0976652 -0.021470105 0.035924964 -0.046470467 0.017179621 -0.00987867 -0.07647168
-0.057293627 0.01807673 -0.095554285 0.061009817 0.050272934 -0.034559455 -0.08120586 0.025831325
-0.043225136 0.006062071 -0.084059745 -0.048132267 -0.06188768 -0.0377514 0.039937418 -0.023828119
-0.006070664 -0.09282556 0.047538143 -0.063572206 0.043130856 -0.07603239 -0.016815634 0.054162715
0.062440388 0.053125888 -0.076407075 0.020508792 0.00010429087 0.020717863 0.021721285 -0.049024407
0.081351504 0.06703575 0.014731031 -0.06060987 -0.036131896 -0.041077793 -0.01179013 -0.006931961
0.02914044 -0.034498014 -0.057948586 -0.060005706 -0.0049125636 0.06820746 -0.084126115 -0.02938003
-0.07687319 -0.100335516 -0.030693706 0.0029119623 -0.03945972 -0.061098482 -0.0014740821 -0.043859664
0.06379031 0.0037428786 0.061297674 -0.043693766 0.009270695 -0.0024178056 -0.05246289 -0.002842252
-0.07905712 -0.04772566 0.03601563 -0.09283859 -0.04219543 -0.06466479 0.07491671 -0.01956803
-0.018183531 -0.069433056 0.009565271 0.070137575 0.0027874243 -0.06672141 0.0500909 -0.0010544284
-0.044090517 -0.018950528 -0.03422405 -0.08371163 0.007246507 0.014467716 0.07232401 -0.036840726
-0.066866815 0.02614431 0.049191512 0.028010443 -0.0913025 0.02662195 0.04036647 -0.06936887
-0.008608243 0.057291325 -0.07044861 0.011971435 -0.0006029071 -0.015667973 -0.073105924 -0.022748008
-0.081207626 -0.07627885 0.013026108 -0.092076704 -0.07267533 -0.059348524 0.058111817 0.030056736
0.06059062 -0.08985093 -0.07539981 -0.027985247 0.07192929 -0.0031325258 0.07297865 -0.04730386
0.021538647 -0.08315748 -0.09206699 0.051649194 -0.09220474 0.019207701 0.07541719 -0.07345908
0.0755131 -0.054279085 -0.08976086 -0.041005246 -0.06177824 -0.04300825 -0.08725497 -0.02710002
0.038421206 -0.014072884 0.05067044 0.07022368 -0.0032432748 0.03593182 0.07221319 0.05621377
0.067672744 -0.087627746 -0.0864571 -0.027559891 0.012973285 -0.056903545 -0.07709822 0.028500954
0.0063744937 0.00060367974 0.02693998 -0.039124172 0.025932709 -0.047796752 -0.07817882 -0.021947525
0.077223234 0.05401939 0.025864394 -0.081670836 0.04026504 -0.07915129 -0.009372826 -0.008639251
-0.0138324285 -0.074993186 0.024859812 0.016023759 -0.04539573 0.048812214 0.024202008 -0.031139916
-0.08888811 -0.03766675 -0.034777522 -0.023520218 0.07539556 0.04904571 -0.01974523 -0.06886122
0.027019145 -0.046733204 -0.0729117 0.073084235 -0.0697211 -0.08005018 0.061822813 -0.065953106
00000000: c9c6 7c3c 6c4c 22bd a8fc 86bd da98 fb3b
00000010: f15b 4c3d d6c4 4f3d 96d2 943b 89e0 c0bd
00000020: e832 c3bd e6f2 15bc 7744 923c c546 90bd
00000030: fbeb b23c 1e44 4bbd 9520 133d f05f 91bd
00000040: 3283 4b3d eea6 4f3d cd89 39bd 5471 aa3b
00000050: b4f3 f5bb 5dea 33bc dc69 b8bd 31f0 7fbd
00000060: d708 07bd dd90 9cbd b596 05bd 3d07 bdbd
00000070: 6ba5 273d 67d8 243d feb9 c43b ec05 743d
00000080: f627 9bbd f10d 963b c6ad ebbc cc87 4abd
00000090: ff14 14bb baf6 28bd 36de 20bd c154 8f3b
000000a0: a6dc 6fbd 9ea8 75bc eee3 84bd 8cd4 543b
000000b0: 7a03 c6bd 200f 593d 078d 7f3d 34e0 1bbc
000000c0: 7653 393d caaf 80bc 8de4 3abd 07a6 143d
000000d0: 2668 933b ab6e ee3c 22a2 6abd 7d89 943d
000000e0: 3262 e73c b104 c8bd 13e2 afbc 0e26 133d
000000f0: d157 3ebd 47bc 8c3c 25da 21bc 2f9d 9cbd
00000100: b9ac 6abd a715 943c f7b1 c3bd 6ee5 793d
00000110: feea 4d3d 378e 0dbd 424f a6bd 379c d33c
00000120: d70c 31bd 56a4 c63b 8427 acbd 5726 45bd
00000130: f07d 7dbd 36a1 1abd 6b95 233d 3033 c3bc
00000140: 6cec c6bb 541b bebd 5bb7 423d 2532 82bd
00000150: fba9 303d dfb6 9bbd f1c0 89bc b9d9 5d3d
00000160: 7ec1 7f3d 889a 593d 507b 9cbd 0e02 a83c
00000170: bcb6 da38 82b8 a93c d6f0 b13c d1cd 48bd
00000180: 9e9b a63d 0a4a 893d 6c5a 713c 0e42 78bd
00000190: 0aff 13bd 3041 28bd 642b 41bc 8125 e3bb
000001a0: efb7 ee3c ca4d 0dbd 7f5b 6dbd 8bc8 75bd
000001b0: 92f9 a0bb 5ab0 8b3d 504a acbd 64ae f0bc
000001c0: b16f 9dbd b57c cdbd 5e71 fbbc 9fd6 3e3b
000001d0: 84a0 21bd 6742 7abd fd35 c1ba 31a6 33bd
000001e0: 7ea4 823d 154b 753b 4513 7b3d 3cf8 32bd
000001f0: 1de4 173c 0c74 1ebb 54e3 56bd 1345 3abb
00000200: b3e8 a1bd fb7b 43bd 2085 133d 2922 bebd
00000210: 1dd5 2cbd f96e 84bd ef6d 993d 224d a0bc
00000220: a1f5 94bc eb32 8ebd a8b7 1c3c 4aa4 8f3d
00000230: 38ad 363b 3ca5 88bd 1e2c 4d3d bf34 8aba
00000240: 4298 34bd 233e 9bbc 842e 0cbd 0171 abbd
00000250: 1b74 ed3b 000a 6d3c 9c1e 943d 4de6 16bd
00000260: 78f1 88bd 982c d63c 0a7d 493d 2876 e53c
00000270: cefc babd 4716 da3c 5057 253d 4411 8ebd
00000280: 9709 0dbc 4faa 6a3d 5c47 90bd d623 443c
00000290: 690c 1eba 1f5a 80bc 8fb8 95bd 085a babc
000002a0: 2f50 a6bd 1638 9cbd 756b 553c b692 bcbd
000002b0: ced6 94bd 7017 73bd a806 6e3d 8b39 f63c
000002c0: df2d 783d c403 b8bd 376b 9abd 5141 e5bc
000002d0: aa4f 933d 104b 4dbb d575 953d b1c1 41bd
000002e0: d171 b03c 784e aabd 9e8d bcbd 1b8e 533d
000002f0: d7d5 bcbd 7859 9d3c 5474 9a3d b771 96bd
00000300: 9da6 9a3d bf53 5ebd 8bd4 b7bd 1ef5 27bd
00000310: 2e0b 7dbd 6b29 30bd bcb2 b2bd dc00 debc
00000320: 8e5f 1d3d f491 66bc cf8b 4f3d 6fd1 8f3d
00000330: 1f8d 54bb 3e2d 133d 82e4 933d 6940 663d
00000340: 0298 8a3d 2d76 b3bd 6c10 b1bd 48c5 e1bc
00000350: e78d 543c b113 69bd ace5 9dbd d57a e93c
00000360: 21e1 d03b 4340 1e3a 3cb1 dc3c ab40 20bd
00000370: d570 d43c 87c6 43bd 381c a0bd 4ccb b3bc
00000380: 3727 9e3d 7043 5d3d 91e1 d33c 0a43 a7bd
00000390: f4ec 243d 121a a2bd 7b90 19bc a58b 0dbc
000003a0: 69a1 62bc 0796 99bd cea6 cb3c 4244 833c
000003b0: dff0 39bd 51ef 473d 4a43 c63c 2319 ffbc
000003c0: f80a b6bd 7348 1abd e072 0ebd 79ad c0bc
000003d0: fd68 9a3d 28e4 483d c0c0 a1bc 1c07 8dbd
000003e0: 4157 dd3c 516b 3fbd bb52 95bd 30ad 953d
000003f0: f0c9 8ebd 59f1 a3bd eb39 7d3d 6c12 87bd

net.0.bias f4 [100]
-0.09224589 0.034090437 0.06871866 0.075577125 0.041268993 0.0031586802 0.008700102 0.07092144
0.054500572 -0.027277982 -0.06597784 0.069681406 0.035665523 -0.10048593 0.02622024 0.061438907
-0.012876859 -0.047478836 -0.0037796577 0.032844152 0.030764893 -0.04841359 -0.0787456 -0.031510223
-0.03486521 -0.030602122 -0.06865095 -0.0506742 -0.025877679 -0.05993353 0.0059139295 -0.056759898
-0.023052087 0.027484134 -0.06263872 0.035517342 -0.022773877 0.004401178 -0.055957478 0.017396549
-0.07465404 0.07112025 0.064628154 0.049710274 -0.083439 0.07546234 -0.061737217 -0.03484305
-0.10793802 0.037634566 -0.09547168 0.0061516766 0.014251649 -0.020675616 -0.015821535 -0.05045978
0.025748555 -0.017132733 0.02833539 0.0090093035 -0.066927336 0.04205273 0.039962463 0.034642674
-0.04451172 -0.07287073 0.011283687 0.04118846 0.073174916 0.03813479 -0.089791834 0.05632124
0.06347193 -0.019528616 -0.070704386 0.04195084 0.026924944 0.0010342185 -0.059667736 -0.080415055
-0.069454 -0.047295272 0.0029047974 0.05547766 -0.07644618 0.030272631 0.02499626 0.03240102
-0.0843135 -0.08356642 0.005962851 -0.086394444 -0.08698968 0.041243814 -0.030430714 -0.050835706
0.011194549 -0.021610942 0.047085784 0.010405346
00000000: 6aeb bcbd 6aa2 0b3d 5ebc 8c3d 2ec8 9a3d
00000010: ad09 293d dc01 4f3b df8a 0e3c 433f 913d
00000020: fe3b 5f3d 1376 dfbc 641f 87bd 20b5 8e3d
00000030: 0316 123d 91cb cdbd d4cb d63c 5da7 7b3d
00000040: 76f9 52bc 2b79 42bd 22b4 77bb 9787 063d
00000050: a806 fc3c 544d 46bd 6045 a1bd dd10 01bd
00000060: d3ce 0ebd 4db1 fabc df98 8cbd c08f 4fbd
00000070: 6dfd d3bc dc7c 75bd a3c9 c13b 117d 68bd
00000080: bbd7 bcbc 6826 e13c bb48 80bd a27a 113d
00000090: 4890 babc c237 903b ab33 65bd 3583 8e3c
000000a0: 38e4 98bd 7ea7 913d c45b 843d 009d 4b3d
000000b0: 11e2 aabd 008c 9a3d 2ae0 7cbd 96b7 0ebd
000000c0: 9c0e ddbd b426 1a3d a886 c3bd 0194 c93b
000000d0: c07f 693c e95f a9bc 2a9c 81bc eaae 4ebd
000000e0: a2ee d23c f259 8cbc 9f1f e83c c29b 133c
000000f0: 3311 89bd 7c3f 2c3d aeaf 233d 7ae5 0d3d
00000100: ec51 36bd 403d 95bd 37df 383c 3bb5 283d
00000110: bbdc 953d 3a33 1c3d c8e4 b7bd 1ab1 663d
00000120: 92fd 813d 7afa 9fbc 76cd 90bd a5d4 2b3d
00000130: b391 dc3c 9d8e 873a 2866 74bd a6b0 a4bd
00000140: e63d 8ebd b0b8 41bd 6a5e 3e3b 8b3c 633d
00000150: d18f 9cbd 4ffe f73c f5c4 cc3c efb6 043d
00000160: 8eac acbd df24 abbd 0564 c33b 92ef b0bd
00000170: a527 b2bd 46ef 283d d549 f9bc 1a39 50bd
00000180: 5769 373c 6e09 b1bc 06dd 403d 2f7b 2a3c

net.2.weight f4 [80, 100]
0.10107296 -0.069060944 0.008191327 -0.059179533 -0.10050744 0.09819444 -0.095772706 -0.04818125
-0.028804317 -0.116028816 0.015522422 -0.09729319 -0.0038825555 0.06424866 0.020437598 -0.11686363
0.019675948 0.034324944 -0.007915113 0.053012043 0.078534976 0.080169804 -0.017684178 -0.019448899
-0.049876794 0.06409497 -0.01872425 0.07623321 0.09248548 -0.0383049 0.055793405 -0.02370637
0.08292264 0.03282955 -0.057350457 0.11881524 -0.09392125 -0.02849123 0.019660315 0.025766557
-0.03317901 0.04143522 -0.050439455 -0.09794618 0.043506872 -0.08984004 0.050594013 0.03901398
0.09764563 -0.07595775 0.056808963 0.031669628 -0.0025186858 -0.06368983 -0.08621188 -0.054048993
-0.087368965 -0.071917236 0.0068356795 -0.045645587 0.020138746 -0.03660253 0.07064288 -0.07266006
0.11138558 -0.047369964 -0.053153154 0.040509857 -0.1700975 -0.02203095 -0.0008040053 0.018513989
-0.019616779 0.0022965122 -0.055986445 0.02629637 -0.16415873 0.063550144 -0.013826639 0.07315966
0.044752233 0.020654064 0.0025786385 0.094011195 0.03590572 -0.060458496 0.070932925 0.16826773
-0.07327269 -0.012820963 0.0075080656 0.056384128 -0.08579278 0.0053216964 -0.069904335 -0.031155938
-0.10512377 0.07745796 0.06827731 -0.06975996 0.065482646 -0.058863427 -0.08546969 -0.11811186
0.023658352 0.05123053 0.051418785 -0.0990845 -0.10683013 -0.07519146 0.09242624 -0.109518155
-0.03361572 0.08537135 0.06836904 0.028703278 0.08056576 0.07224616 0.10396554 0.0709608
0.04821453 -0.013264874 -0.039888386 -0.046288792 0.0010555682 -0.011548199 0.007959568 -0.012667134
-0.026816448 -0.05023108 0.051163632 -0.07312612 -0.01793421 0.06557991 0.04412324 0.082684435
-0.052354332 -0.1030581 0.014306678 -0.02270158 -0.088874534 -0.09042619 0.022595698 -0.09508095
-0.05957265 0.081983045 -0.029302916 -0.097275674 -0.009842464 -0.024371114 -0.046105597 -0.07584377
-0.0493215 -0.09344613 -0.054301824 -0.02846296 -0.055039905 0.08765449 0.10973091 -0.006210311
0.003752118 -0.005973287 0.027952677 -0.07405541 -0.024179006 0.051837564 -0.04666893 -0.07032313
0.030696934 0.02405434 0.04634709 0.094721824 0.016588317 -0.043272495 -0.0049121547 -0.057916634
0.06483526 -0.0038988483 0.023150925 -0.040556177 0.044440515 0.04327713 0.07144553 0.019992035
0.049344666 -0.017588712 0.0056615123 -0.063602716 0.009361086 0.09272444 0.067912385 -0.08431392
0.019292027 0.09042729 -0.076842785 -0.14525719 -0.11853319 0.03574604 -0.05376203 -0.016517887
-0.034032397 0.07566194 0.01382109 0.0031359335 -0.049820192 -0.085218675 -0.012696679 0.0068410183
0.024698388 0.04845464 0.021772005 -0.060333118 -0.050090004 0.03702137 -0.049734022 -0.07227372
0.010662258 -0.09696334 0.028111316 -0.025229217 -0.059968006 0.00012338004 0.013120556 -0.07188803
0.09763403 0.034285612 -0.038782228 0.026476238 -0.0392234 0.08840901 -0.096029274 -0.020871455
0.020132719 0.088862136 -0.05646175 -0.031206634 0.0055314098 0.018816616 -0.0775542 0.038454458
-0.08568227 -0.003193054 -0.024404347 -0.046621382 0.008256793 -0.0014608353 -0.064254194 0.008564507
-0.08545076 0.026964113 0.070988946 -0.04991403 -0.03395935 0.045475997 0.023144556 -0.03282999
00000000: 57ff ce3d d36f 8dbd ea34 063c 3d66 72bd
00000010: d8d6 cdbd 2b1a c93d 7b24 c4bd b459 45bd
00000020: 08f7 ebbc 84a0 edbd c251 7e3c a741 c7bd
00000030: 7972 7ebb cd94 833d c06c a73c 3356 efbd
00000040: 742f a13c 5098 0c3d 64ae 01bc 2823 593d
00000050: f2d6 a03d 1130 a43d 69de 90bc 4c53 9fbc
00000060: 9c4b 4cbd 3944 833d 9963 99bc 2820 9c3d
00000070: 0769 bd3d 99e5 1cbd a087 643d dc33 c2bc
00000080: 58d3 a93d 4778 063d 50e8 6abd 6855 f33d
00000090: c959 c0bd 7166 e9bc ab0e a13c 6314 d33c
000000a0: b7e6 07bd fab7 293d 9a99 4ebd 0298 c8bd
000000b0: 4334 323d 0efe b7bd ab3b 4f3d 20cd 1f3d
000000c0: 6ffa c73d bd8f 9bbd 84b0 683d 03b8 013d
000000d0: 8910 25bb d06f 82bd db8f b0bd 7a62 5dbd
000000e0: 80ee b2bd 5849 93bd d6fd df3b def6 3abd
000000f0: 03fa a43c 89ec 15bd 37ad 903d ccce 94bd
00000100: 1f1e e43d 0207 42bd 1fb7 59bd aaed 253d
00000110: 0a2e 2ebe 407a b4bc e2c3 52ba a6aa 973c
00000120: 5eb3 a0bc 1581 163b 0b52 65bd 7c6b d73c
00000130: 3a19 28be 9426 823d 2189 62bc bbd4 953d
00000140: 1e4e 373d b632 a93c 60fe 283b f188 c03d
00000150: e011 133d 54a3 77bd 4845 913d 604e 2c3e
00000160: fe0f 96bd 040f 52bc 3806 f63b 0bf3 663d
00000170: 20b4 afbd a061 ae3b 012a 8fbd bd3a ffbc
00000180: 224b d7bd 47a2 9e3d f9d4 8b3d 4fde 8ebd
00000190: c41b 863d c71a 71bd bc0a afbd a1e4 f1bd
000001a0: 29cf c13c 1bd7 513d 819c 523d d0ec cabd
000001b0: c1c9 dabd fbfd 99bd f849 bd3d 0e4b e0bd
000001c0: a3b0 09bd 2dd7 ae3d 1105 8c3d 2323 eb3c
000001d0: a9ff a43d cbf5 933d e3eb d43d e553 913d
000001e0: 997c 453d ea54 59bc 0162 23bd 5199 3dbd
000001f0: fe5a 8a3a a834 3dbc d968 023c d089 4fbc
00000200: 2bae dbbc 1bbf 4dbd f590 513d 26c3 95bd
00000210: c4ea 92bc c34e 863d 92ba 343d 7556 a93d
00000220: 7f71 56bd 2010 d3bd 8f66 6a3c aaf8 b9bc
00000230: da03 b6bd 5e31 b9bd 9d1a b93c cdb9 c2bd
00000240: 7302 74bd bae6 a73d ab0c f0bc 7838 c7bd
00000250: 4942 21bc eea5 c7bc 39d9 3cbd fa53 9bbd
00000260: 5705 4abd af60 bfbd 976b 5ebd 272b e9bc
00000270: 8671 61bd 3284 b33d 99ba e03d dd7f cbbb
00000280: 18e6 753b 90bb c3bb 03fd e43c 5daa 97bd
00000290: 0d13 c6bc a053 543d ec27 3fbd 9305 90bd
000002a0: 2378 fb3c 9b0d c53c 72d6 3d3d 84fd c13d
000002b0: 39e4 873c 803e 31bd 24f6 a0bb fe39 6dbd
000002c0: 59c8 843d d283 7fbb 02a7 bd3c 3c1e 26bd
000002d0: 4207 363d 5c43 313d 0952 923d 56c6 a33c
000002e0: a21d 4a3d 3416 90bc 3584 b93b 2442 82bd
000002f0: 3e5f 193c 50e6 bd3d a615 8b3d c7ac acbd
00000300: 500a 9e3c f131 b93d c05f 9dbd 4dbe 14be
00000310: 87c1 f2bd 716a 123d 9335 5cbd 8550 87bc
00000320: 8e65 0bbd a6f4 9a3d da71 623c 3c84 4d3b
00000330: 4210 4cbd 2187 aebd bb05 50bc 9f2a e03b
00000340: 4654 ca3c 5f78 463d 345b b23c dc1f 77bd
00000350: 2d2b 4dbd b8a3 173d e7b5 4bbd 3e04 94bd
00000360: c0b0 2e3c b794 c6bd b449 e63c 81ad cebc
00000370: 03a1 75bd 945f 0139 9af7 563c 083a 93bd
00000380: 5af4 c73d 126f 0c3d 1dda 1ebd b2e4 d83c
00000390: b7a8 20bd c80f b53d ffaa c4bd 9dfa aabc
000003a0: 5fed a43c 5afd b53d 7044 67bd 0ea5 ffbc
000003b0: d440 b53b 4e25 9a3c bdd4 9ebd 6c82 1d3d
000003c0: 307a afbd 8f42 51bb a0eb c7bc 10f6 3ebd
000003d0: 8047 073c 8079 bfba b497 83bd 2552 0c3c
000003e0: cf00 afbd d8e3 dc3c a762 913d a772 4cbd
000003f0: f618 0bbd 0a45 3a3d a799 bd3c bd78 06bd

net.2.bias f4 [80]
0.047532234 -0.0008126951 -0.088326305 -0.06720283 0.06782862 -0.04669928 -0.021796877 -0.1506512
-0.02143633 -0.07710487 -0.110359274 -0.009115518 0.08335733 0.02532225 -0.13010447 0.039005224
-0.0068105166 -0.037431315 0.018725524 -0.07746162 -0.06797589 -0.061095446 -0.037007846 -0.07662622
-0.06331299 -0.026115952 0.007962498 0.00420793 -0.067114286 -0.06230479 -0.049096752 0.14691806
0.019633839 0.042521283 -0.070290044 -0.031006075 -0.021687785 -0.047004506 -0.07686501 0.029306618
0.044227336 0.027922576 -0.0015762551 -0.084886335 -0.103352636 -0.013030911 -0.018057212 -0.010832427
0.12093255 -0.053356167 0.021024508 -0.03856311 -0.08863898 -0.01768364 0.013392361 0.060076892
-0.038466398 -0.08766332 0.031903874 0.014095733 -0.03451977 -0.05631746 -0.062803835 -0.0045425924
-0.062056933 -0.10140861 0.05761584 -0.05242672 0.01775285 0.04944479 0.050476216 -0.12079075
0.021668851 -0.027735446 0.013779735 0.054080002 -0.10205318 -0.09017633 0.016508676 -0.057289436
00000000: 29b1 423d 0c0b 55ba 6ce4 b4bd a3a1 89bd
00000010: bbe9 8a3d bf47 3fbd 5d8f b2bc 4f44 1abe
00000020: 3e9b afbc 28e9 9dbd 0b04 e2bd 4159 15bc
00000030: 3fb7 aa3d 9b70 cf3c 1b3a 05be f1c3 1f3d
00000040: c12a dfbb 9451 19bd 4566 993c 33a4 9ebd
00000050: f236 8bbd 383f 7abd 8a95 17bd 35ee 9cbd
00000060: 3eaa 81bd 1ff1 d5bc 2375 023c ade2 893b
00000070: 3773 89bd 4f33 7fbd ad19 49bd b071 163e
00000080: 25d7 a03c cc2a 2e3d 3af4 8fbd 7400 febc
00000090: 95aa b1bc cc87 40bd 676b 9dbd 6f14 f03c
000000a0: b927 353d e3bd e43c 589a ceba e3d8 adbd
000000b0: 8caa d3bd 9a7f 55bc b8ec 93bc 7e7a 31bc
000000c0: 7cab f73d ff8b 5abd 973b ac3c 5af4 1dbd
000000d0: 5b88 b5bd 48dd 90bc a26b 5b3c 3013 763d
000000e0: f18e 1dbd d488 b3bd a3ad 023d caf1 663c
000000f0: 9a64 0dbd 23ad 66bd 4c9f 80bd 07da 94bb
00000100: 692f 7ebd 51af cfbd 96fe 6b3d 66bd 56bd
00000110: 6d6e 913c 9f86 4a3d 26c0 4e3d 2461 f7bd
00000120: e082 b13c 7235 e3bc 66c4 613c fe82 5d3d
00000130: 4201 d1bd 5eae b8bd 343d 873c 54a8 6abd

net.4.weight f4 [50, 80]
-0.0007664617 -0.053329248 -0.08026545 -0.03293135 -0.060330335 -0.05446556 0.068215705 -0.07664143
-0.10271008 0.021593444 -0.053678125 -0.013376894 0.06468864 0.03704771 0.044702552 0.032034367
-0.005855424 0.08317501 -0.06456284 0.10236663 0.010666642 -0.02154541 -0.09551136 -0.005700281
0.010593727 0.07071669 0.034848414 0.04954837 -0.09951856 0.00019252827 0.124633074 0.10818543
0.12471056 0.02711106 -0.082411766 -0.058145057 0.045956228 0.11793848 -0.004540106 -0.05148678
-0.05042441 -0.014747642 0.013035248 -0.08301479 -0.05858998 -0.051502407 0.08876904 0.0030921095
0.0388447 -0.06282459 -0.03276077 0.059199214 -0.0381107 0.033175588 -0.008014631 0.0778764
0.08911983 -0.020762224 -0.0009988958 -0.031102082 0.11645605 0.030602554 -0.108402856 -0.03162479
-0.13217123 0.040496167 0.0049823467 -0.1033017 0.046711117 -0.023762897 -0.041848816 -0.06225202
-0.022186516 -0.072233774 -0.005169135 0.011097344 0.0806563 -0.0805918 -0.003652644 0.015735522
-0.17217007 0.12941355 0.049044732 -0.009462483 0.06419792 0.028952725 0.008397622 -0.020531
-0.070963204 0.043257877 0.089481816 0.018239154 0.02991639 -0.05051044 -0.068350546 0.12200456
0.043391258 0.0053267404 -0.03434205 0.0685143 0.07107715 -0.1312245 -0.12905951 -0.06263839
-0.009981262 0.015018469 -0.013082558 0.053980745 0.089093946 -0.03847044 -0.024510682 -0.007768078
0.049226157 0.09042359 0.028241253 -0.0793651 0.033883438 -0.03540363 0.03544801 -0.03693222
-0.02297908 0.059707385 -0.109964125 0.10126001 -0.013533592 0.03758241 -0.0014764947 0.12080764
0.015150594 -0.014079021 0.120817386 0.03037442 -0.13431877 0.04175021 -0.04832578 -0.13160062
0.018346693 0.076108 0.0984415 -0.0652351 -0.048022352 -0.0065904194 0.015481425 -0.054290224
0.036494743 -0.011504342 0.015837928 -0.02785803 -0.0042570285 0.096512586 0.05049298 -0.00640079
0.060323857 -0.0039923405 -0.0073560523 0.06235606 0.041456066 -0.06618679 0.06548118 0.022332825
-0.13907027 -0.074932806 -0.06001706 0.018620797 -0.10054073 0.01227025 -0.050043896 -0.049805712
0.055541296 0.12425758 -0.034877434 0.024971666 -0.046087265 -0.02998037 -0.007625321 -0.11203085
0.09838596 0.049684968 -0.06783632 0.06422411 0.12300186 -0.053392388 -0.111777686 0.019054888
0.09304901 0.047440425 0.024986891 -0.05104128 0.10265737 -0.14762388 0.041645065 0.058713295
0.061994415 0.033552874 -0.06595704 -0.08256411 0.0817322 0.12253479 0.0592308 -0.02433548
-0.10246259 0.09949139 -0.045080226 0.028624281 -0.10768957 0.091949835 0.03458952 -0.05775159
-0.105432026 -0.019487461 -0.10336153 0.025742335 -0.05824843 0.07269925 0.047730558 -0.04810837
0.08800737 0.066120476 -0.06360894 0.07952726 -0.0076765497 -0.020651443 -0.11464325 -0.11494581
-0.009022828 -0.0018343037 0.028269276 -0.08878258 0.10124589 0.085517846 0.06241544 0.0710666
-0.06258545 -0.028796172 -0.08664626 0.037600078 0.022949325 -0.08437296 0.07777482 -0.033288993
-0.12566094 0.037104517 -0.031573277 0.08627935 -0.021536823 0.015128245 0.02198695 0.022462493
0.06783241 0.023383105 0.084191315 -0.049967397 -0.035426278 0.03584707 -0.04480724 -0.06326413
00000000: 60ec 48ba c56f 5abd 3662 a4bd 06e3 06bd
00000010: f11c 77bd 4717 5fbd adb4 8b3d 2ff6 9cbd
00000020: aa59 d2bd bce4 b03c 98dd 5bbd c32a 5bbc
00000030: 7a7b 843d 57bf 173d 061a 373d 7836 033d
00000040: dbde bfbb a957 aa3d 8639 84bd 99a5 d13d
00000050: 24c3 2e3c 0080 b0bc 769b c3bd 6cc9 babb
00000060: 5091 2d3c e9d3 903d 36bd 0e3d 3bf3 4a3d
00000070: 63d0 cbbd 6ae1 4939 a03f ff3d 5390 dd3d
00000080: 4068 ff3d 0418 de3c 80c7 a8bd 8329 6ebd
00000090: 993c 3c3d bb89 f13d 2bc5 94bb cde3 52bd
000000a0: d389 4ebd 18a0 71bc cb91 553c a903 aabd
000000b0: 0cfc 6fbd 30f4 52bd 8bcc b53d fda4 4a3b
000000c0: 9f1b 1f3d 2eaa 80bd 2830 06bd e07a 723d
000000d0: f719 1cbd 20e3 073d cd4f 03bc a97d 9f3d
000000e0: 7584 b63d 8a15 aabc 62ed 82ba cbc9 febc
000000f0: 8280 ee3d 35b2 fa3c 5102 debd ff88 01bd
00000100: e557 07be 4fdf 253d f442 a33b d78f d3bd
00000110: 2854 3f3d 68aa c2bc aa69 2bbd f9fb 7ebd
00000120: 7fc0 b5bc 4def 93bd d961 a9bb a2d1 353c
00000130: 212f a53d 500d a5bd 3361 6fbb c8e7 803c
00000140: 5a4d 30be fc84 043e 21e3 483d 8808 1bbc
00000150: 337a 833d 442e ed3c 2e96 093c a130 a8bc
00000160: 2855 91bd 2c2f 313d 3e42 b73d 476a 953c
00000170: 3813 f53c 09e4 4ebd 5ffb 8bbd 87dd f93d
00000180: 08bb 313d f08b ae3b 40aa 0cbd 3a51 8c3d
00000190: e690 913d b75f 06be 2d28 04be 8e48 80bd
000001a0: 7288 23bc 0610 763c 3a58 56bc ea1a 5d3d
000001b0: e376 b63d 2e93 1dbd a0ca c8bc 5c8b febb
000001c0: 5ea1 493d 0130 b93d 335a e73c 2b8a a2bd
000001d0: 5cc9 0a3d 6603 11bd ef31 113d 3d46 17bd
000001e0: a03e bcbc bb8f 743d df34 e1bd 6861 cf3d
000001f0: 00bc 5dbc 03f0 193d f186 c1ba ff69 f73d
00000200: 323a 783c b2ab 66bc 1b6f f73d c7d3 f83c
00000210: dc8a 09be 4502 2b3d 41f1 45bd 50c2 06be
00000220: ce4b 963c 83de 9b3d b29b c93d fb99 85bd
00000230: 16b3 44bd 72f4 d7bb cea5 7d3c 6d5f 5ebd
00000240: 837b 153d b57c 3cbc 8bbe 813c 8636 e4bc
00000250: 8b7e 8bbb 64a8 c53d bad1 4e3d b8bd d1bb
00000260: 2616 773d 2ed2 82bb 0a0b f1bb 1169 7f3d
00000270: d6cd 293d f18c 87bd ff1a 863d 54f3 b63c
00000280: 7068 0ebe 5f76 99bd 73d4 75bd a48a 983c
00000290: 4ce8 cdbd 2909 493c d4fa 4cbd 1301 4cbd
000002a0: 457f 633d c27a fe3d a4db 0ebd 6191 cc3c
000002b0: 00c6 3cbd 6599 f5bc d4dd f9bb 6e70 e5bd
000002c0: 947e c93d 7782 4b3d c5ed 8abd ee87 833d
000002d0: 66e8 fb3d fab1 5abd b3eb e4bd ff18 9c3c
000002e0: 7b90 be3d e450 423d 4fb1 cc3c a910 51bd
000002f0: 073e d23d b72a 17be 0494 2a3d 5a7d 703d
00000300: dbed 7d3d bd6e 093d 7c14 87bd 5f17 a9bd
00000310: 3663 a73d 85f3 fa3d ff9b 723d 335b c7bc
00000320: e8d7 d1bd 24c2 cb3d 0ba6 38bd 787d ea3c
00000330: 598c dcbd 3250 bc3d bead 0d3d ee8c 6cbd
00000340: bfec d7bd 2ba4 9fbc 36af d3bd 97e1 d23c
00000350: e895 6ebd 58e3 943d 1e81 433d 480d 45bd
00000360: 353d b43d 2c6a 873d 6745 82bd 30df a23d
00000370: 918b fbbb 372d a9bc 15ca eabd b568 ebbd
00000380: 7cd4 13bc 056d f0ba f894 e73c a4d3 b5bd
00000390: 015a cf3d fb23 af3d 55a7 7f3d 5e8b 913d
000003a0: cd2c 80bd f3e5 ebbc 9873 b1bd 8a02 1a3d
000003b0: 3900 bc3c bbcb acbd 6848 9f3d 0a5a 08bd
000003c0: 43ad 00be e8fa 173d fb52 01bd 3ab3 b03d
000003d0: fe6d b0bc 75dc 773c fa1d b43c 4303 b83c
000003e0: b8eb 8a3d ed8d bf3c 7f6c ac3d 9daa 4cbd
000003f0: 251b 11bd 61d4 123d cc87 37bd a090 81bd

net.4.bias f4 [50]
0.103924476 0.061853584 0.021175712 -0.05585263 -0.07835172 0.058895044 0.009824133 -0.13570294
-0.10182681 0.10080355 0.051213495 -0.030136509 0.027598305 0.027794557 0.00048346442 -0.02921943
-0.031457655 -0.12988517 -0.16870366 -0.09811196 0.0011335649 -0.0015813026 0.09711294 -0.02071106
-0.005485777 -0.025366515 -0.12817186 -0.117737815 0.0902737 -0.11348621 -0.1106654 -0.013222206
-0.11394001 -0.104735285 -0.08826711 -0.07913957 -0.07909637 -0.020857485 0.043303307 -0.0055898074
-0.031133609 0.010299716 -0.008952479 -0.09378885 -0.095210075 -0.11046653 -0.004101452 -0.009779228
-0.037884243 0.07023284
00000000: 5bd6 d43d 2f5a 7d3d b078 ad3c bac5 64bd
00000010: de76 a0bd ee3b 713d 66f5 203c b6f5 0abe
00000020: 938a d0bd 1772 ce3d 3ec5 513d d7e0 f6bc
00000030: d715 e23c 69b1 e33c 7f79 fd39 965d efbc
00000040: bed9 00bd 9e00 05be a7c0 2cbe ecee c8bd
00000050: 2094 943a b643 cfba 26e3 c63d 3eaa a9bc
00000060: 08c2 b3bb 70cd cfbc 7c3f 03be 8620 f1bd
00000070: 6be1 b83d 756b e8bd 8ba4 e2bd f4a1 58bc
00000080: 6159 e9bd 747f d6bd 63c5 b4bd ed13 a2bd
00000090: 47fd a1bd 51dd aabc cf5e 313d b42a b7bb
000000a0: e90b ffbc 24c0 283c 6bad 12bc 5e14 c0bd
000000b0: 80fd c2bd 473c e2bd 7965 86bb 0e39 20bc
000000c0: 822c 1bbd 3cd6 8f3d

net.6.weight f4 [25, 50]
-0.123370886 0.08547556 -0.16445068 -0.07078945 -0.03018267 0.10887648 -0.039108463 0.06018809
0.04151334 0.11395053 0.0055982354 0.027414143 0.12228778 -0.022946687 -0.1041181 -0.009065543
0.027284058 -0.10011923 -0.014586592 0.082216255 -0.07931684 0.1543917 -0.13529316 -0.12602751
-0.12059877 0.051516995 -0.03661695 -0.10448802 0.037723042 -0.003331878 -0.078185074 0.05645227
0.12665717 -0.10413246 0.1267309 -0.037516695 -0.13318652 -0.014966112 -0.05219791 0.0044040396
0.00821196 -0.070554346 -0.00028827097 -0.074390635 0.09290873 0.020794207 -0.14247474 0.056309965
0.017273288 0.0056025726 -0.10008026 -0.066748895 0.0030477422 -0.13704187 -0.08490207 -0.046374813
0.12053436 0.13631628 -0.078434125 0.07628033 -0.05202079 0.01900678 -0.116486035 -0.030583894
0.026039379 -0.1171229 -0.0021852436 -0.10871715 0.1033639 -0.023749543 0.073610716 0.12173858
-0.0449853 -0.09855026 0.076144904 -0.07935342 -0.025349693 0.10380405 -0.091926 0.030808272
-0.020263921 0.14781241 -0.0025225563 0.03816199 0.08897192 0.0051048724 -0.0751716 0.07713763
0.08898434 -0.00900012 0.014966085 0.069211595 0.15177758 0.12718306 0.07399703 -0.049993686
-0.13330449 0.07019433 0.12605159 -0.06684245 -0.043209266 0.04428535 -0.09290758 -0.06263842
0.030118233 0.05519914 0.051986814 -0.028684968 -0.13401145 -0.07242297 0.0056551252 0.1057056
-0.011010864 0.03909347 -0.15560938 0.10981342 0.12413108 0.11992465 -0.10790146 -0.14310656
-0.04685385 -0.0684701 0.039791264 0.03507572 0.044119988 -0.07627155 -0.13037004 -0.015339842
-0.08795349 -0.05306281 0.04476607 0.0047597717 0.056290958 -0.08219629 -0.028875621 -0.016565407
0.109674364 0.03665133 0.081564665 -0.038904708 0.098077305 -0.020350493 0.15227701 0.008611913
-0.03246328 0.1096422 0.009949872 -0.06127875 -0.07751851 0.06378602 0.08154071 0.032292116
0.10166511 -0.020140912 -0.090438254 0.15025891 -0.041926097 0.09638329 0.051615067 -0.13994387
0.09857579 -0.11224133 0.11622792 -0.14908764 0.06926554 0.087891296 -0.005471688 -0.12052471
0.11052133 0.03696652 -0.053323284 0.058416404 0.07936126 0.095096186 -0.08432044 0.0023496381
0.081926525 -0.122640066 0.04092093 0.09614799 -0.11232153 0.101434074 -0.10879051 -0.10954796
-0.049808975 -0.0018174753 -0.057799336 0.002051261 -0.14551729 -0.029989183 0.04981831 0.08963036
0.06634868 0.060190793 -0.0018992515 0.06722247 -0.0123950215 0.09896229 -0.016844133 0.047391865
-0.11075831 -0.054473132 0.113587506 0.10827914 -0.05890766 -0.048905954 0.102685615 -0.14517456
0.033384267 -0.10600069 -0.14636438 0.030910427 0.06404172 0.0072374963 0.010030249 -0.03313334
-0.06575221 0.116925076 0.113984466 0.03350054 0.114082426 0.045263622 -0.040109318 -0.13300176
-0.07102767 0.06774613 -0.13612126 0.092292234 0.060514804 -0.117966756 -0.009119735 0.057309423
-0.16505305 -0.15279977 -0.027340006 -0.10328784 -0.04612334 0.12341727 -0.038848285 -0.15586282
-0.1156354 -0.09868668 0.044893622 -0.09738716 -0.00027868315 -0.06119118 -0.13401678 0.04673249
-0.11907365 -0.100164965 -0.08801303 -0.13664845 0.0001289183 -0.053801022 -0.07996818 0.09484159
00000000: e0a9 fcbd cf0d af3d c265 28be 0ffa 90bd
00000010: a641 f7bc a2fa de3d 3230 20bd c987 763d
00000020: e409 2a3d e55e e93d 6771 b73b a093 e03c
00000030: 0472 fa3d b1fa bbbc df3b d5bd a587 14bc
00000040: d182 df3c 500b cdbd 9afc 6ebc ff60 a83d
00000050: de70 a2bd dc18 1e3e 4a8a 0abe 5b0d 01be
00000060: 7dfc f6bd 7c03 533d a8fb 15bd d1fd d5bd
00000070: 7a83 1a3d a35b 5abb 7f1f a0bd 7f3a 673d
00000080: 6bb2 013e 6643 d5bd bfc5 013e 1bab 19bd
00000090: 0c62 08be 6c34 75bc 7acd 55bd c34f 903b
000000a0: 758b 063c cc7e 90bd 1323 97b9 1e5a 98bd
000000b0: ef46 be3d 9d58 aa3c e6e4 11be 47a5 663d
000000c0: b680 8d3c c995 b73b e1f6 ccbd a5b3 88bd
000000d0: a1bc 473b b454 0cbe 23e1 adbd 84f3 3dbd
000000e0: b8da f63d 7f96 0b3e 12a2 a0bd dd38 9c3d
000000f0: c013 55bd 1bb4 9b3c 3b90 eebd 138b fabc
00000100: 8950 d53c 22de efbd 4e36 0fbb 19a7 debd
00000110: 74b0 d33d 678e c2bc 37c1 963d 1452 f93d
00000120: 8242 38bd b8d4 c9bd dcf1 9b3d 0c84 a2bd
00000130: 29aa cfbc 3897 d43d b343 bcbd a161 fc3c
00000140: 8600 a6bc 235c 173e 7951 25bb bf4f 1c3d
00000150: e936 b63d c646 a73b 91f3 99bd 55fa 9d3d
00000160: 6c3d b63d 3d75 13bc 4f34 753c cfbe 8d3d
00000170: 956b 1b3e 473c 023e c18b 973d 2ec6 4cbd
00000180: f980 08be 0bc2 8f3d ab13 013e b2e4 88bd
00000190: 33fc 30bd 8e64 353d 5446 bebd 9248 80bd
000001a0: 83ba f63c 7e18 623d 20f0 543d bdfc eabc
000001b0: 4c3a 09be 7e52 94bd a14e b93b 2d7c d83d
000001c0: e966 34bc 7920 203d 1158 1fbe dce5 e03d
000001d0: 7038 fe3d 0e9b f53d 71fb dcbd 878a 12be
000001e0: d3e9 3fbd 0d3a 8cbd 2afc 223d 8fab 0f3d
000001f0: 29b7 343d 4234 9cbd b97f 05be f653 7bbc
00000200: f620 b4bd 6458 59bd a05c 373d dcf7 9b3b
00000210: 5991 663d 8756 a8bd 918c ecbc 2db4 87bc
00000220: f49c e03d b41f 163d 600b a73d 8b5a 1fbd
00000230: c1dc c83d 14b6 a6bc 81ee 1b3e fb18 0d3c
00000240: 37f8 04bd 178c e03d ca04 233c 6dff 7abd
00000250: 06c2 9ebd 3fa2 823d d1fe a63d bd44 043d
00000260: cc35 d03d 8efe a4bc b137 b9bd 79dd 193e
00000270: b3ba 2bbd 9a64 c53d 526a 533d 724d 0fbe
00000280: 1be2 c93d c8de e5bd e708 ee3d 6eaa 18be
00000290: 17db 8d3d 5a00 b43d d94b b3bb a9d5 f6bd
000002a0: 0259 e23d 356a 173d 8469 5abd 0a46 6f3d
000002b0: 2888 a23d cac1 c23d 32b0 acbd 63fc 193b
000002c0: 18c9 a73d b72a fbbd b59c 273d 3de9 c43d
000002d0: d508 e6bd abbc cf3d 8fcd debd ae5a e0bd
000002e0: 7f04 4cbd 5a38 eeba ffbe 6cbd 736e 063b
000002f0: 7c02 15be e0ab f5bc 490e 4c3d 1f90 b73d
00000300: d1e1 873d 9f8a 763d 4ef0 f8ba efab 893d
00000310: 7d14 4bbc beac ca3d b5fc 89bc f91d 423d
00000320: 41d5 e2bd 381f 5fbd 91a0 e83d 74c1 dd3d
00000330: 2949 71bd 9c51 48bd d64c d23d a4a8 14be
00000340: f1bd 083d e416 d9bd 8be0 15be dd37 fd3c
00000350: 4e28 833d 8528 ed3b ea55 243c d3b6 07bd
00000360: 18a9 86bd 6a76 ef3d b070 e93d dd37 093d
00000370: 0ca4 e93d 5966 393d ab49 24bd 9d31 08be
00000380: f476 91bd 7cbe 8a3d 5f63 0bbe b603 bd3d
00000390: 5fde 773d 8e98 f1bd f16a 15bc 49bd 6a3d
000003a0: ab03 29be 8b77 1cbe 26f8 dfbc 9388 d3bd
000003b0: d4eb 3cbd 32c2 fc3d 611f 1fbd 819a 1fbe
000003c0: 41d2 ecbd 3e1c cabd 60e2 373d eb72 c7bd
000003d0: 381c 92b9 9aa3 7abd b23b 09be 916a 3f3d
000003e0: e3dc f3bd 4a23 cdbd 2d40 b4bd 92ed 0bbe
000003f0: 3e2e 0739 765e 5cbd 5bc6 a3bd 4f3c c23d

net.6.bias f4 [25]
0.040327318 0.060909618 -0.10133093 0.06300192 0.06149948 -0.017976893 -0.12239595 -0.036098205
-0.1658195 -0.073713444 -0.06445711 0.056630015 0.057266742 0.13385673 -0.026716787 -0.043211266
-0.06544923 -0.007842399 0.047483195 -0.07687166 -0.16813503 -0.17172784 -0.107297406 0.07751718
0.050052147
00000000: 422e 253d 5d7c 793d 9786 cfbd 2707 813d
00000010: e1e6 7b3d 4744 93bc baaa fabd b6db 13bd
00000020: 96cc 29be 13f7 96bd 1702 84bd e0f4 673d
00000030: 8890 6a3d bd11 093e 2add dabc 4cfe 30bd
00000040: 3f0a 86bd 687d 00bc bd7d 423d e46e 9dbd
00000050: 972b 2cbe 6cd9 2fbe bebe dbbd 54c1 9e3d
00000060: 7b03 4d3d

net.8.weight f4 [2, 25]
0.12201889 -0.05878468 -0.0037352499 0.019062553 0.02615306 -0.021137228 -0.116564736 0.16739133
0.09682031 0.04852569 0.005037365 -0.14998867 -0.07386009 0.08058312 0.095612615 0.08866672
-0.01655987 -0.02612572 0.020173678 0.057790652 -0.07946572 -0.12969898 0.025343535 -0.14925925
0.021369362 0.14714761 -0.058991447 -0.017994057 0.12172841 -0.02327505 -0.02866032 -0.1382481
-0.15059806 -0.16814768 0.11661401 -0.004905075 -0.13539438 -0.07803952 0.069175035 -0.010570341
-0.09689305 0.012294397 -0.045459405 0.012167955 0.05834996 -0.08234315 -0.12985088 0.12945856
-0.13914311 0.008360583
00000000: 0ae5 f93d 34c8 70bd 18cb 74bb 1229 9c3c
00000010: f13e d63c fb27 adbc 7eb9 eebd a268 2b3e
00000020: ba49 c63d e0c2 463d 7b10 a53b a196 19be
00000030: f543 97bd c308 a53d 8cd0 c33d e696 b53d
00000040: 91a8 87bc 9b05 d6bc 4543 a53c e4b5 6c3d
00000050: ecbe a2bd cfcf 04be 3f9d cf3c 6bd7 18be
00000060: cd0e af3c ddad 163e 04a1 71bd 4668 93bc
00000070: bf4c f93d 51ab bebc 0cc9 eabc e990 0dbe
00000080: 6136 1abe e82e 2cbe 53d3 ee3d c0ba a0bb
00000090: d3a4 0abe 2fd3 9fbd a4ab 8d3d 392f 2dbc
000000a0: dd6f c6bd 706e 493c a433 3abd 1a5c 473c
000000b0: 5e00 6f3d 87a3 a8bd a1f7 04be c990 043e
000000c0: 887b 0ebe d4fa 083c

net.8.bias f4 [2]
0.060797427 -0.04613661
00000000: b906 793d bef9 3cbd
