neuralNetworkWeights/neural_network_scenario100_2_1000_noise_0_00_epoch_0008.pt (torch_old, 107912 bytes, 10 tensors)

net.0.weight f4 [100, 128]
000000 31 b1 e9 3c a3 a9 42 bd 84 58 8d bd 2e 5f 80 bc
       0.028526874 -0.04752506 -0.06901649 -0.015670385
000010 a7 2c 72 3d b4 bc b3 3d b2 cd 44 3d 99 82 7c bd
       0.059124615 0.08776227 0.04804773 -0.061647985
000020 dd 51 e1 bd ef 67 fe 3b 84 86 be 3d 08 cc fd bd
       -0.11001942 0.0077638547 0.093030006 -0.123924315
000030 6c 43 8b 3d 26 60 c0 bd 7d af fd 3d 23 45 0d be
       0.06799969 -0.09393339 0.12386987 -0.13795905
000040 6a 49 03 bd c6 8c 51 3c 9a e9 36 bd 96 32 07 3e
       -0.032052435 0.012789911 -0.044656374 0.13202891
000050 7a fa ce bc 30 e7 57 3b df ad 7f bd b2 08 a0 bd
       -0.02526592 0.0032944195 -0.062421676 -0.078141585
000060 6c 9f e2 3d 8f 3d 23 be b9 2b a5 3c 31 29 5f be
       0.110655636 -0.15941451 0.02016245 -0.21793057
000070 6d d2 59 3d c4 fb 81 3d 1d 58 ba 3c a1 89 e7 3d
       0.053179193 0.063468486 0.022747094 0.113055475
000080 79 ef 89 be e4 d6 ad 3d 03 bb fe 3d 2b cc 3e 3c
       -0.26940516 0.08488253 0.124380134 0.011645357
000090 52 1d 9c 3d 55 ac 01 be eb d6 9d bd 9b c7 f4 3c
       0.0762278 -0.12663396 -0.07707008 0.029880336
0000a0 e0 9d 3f 3d 47 08 31 bd cb bb 3b be c5 64 a0 3d
       0.04678142 -0.043220785 -0.18333356 0.0783172
0000b0 74 47 0c be c2 a1 cf 3d ca f3 25 3e 02 93 c9 bd
       -0.13699132 0.10138275 0.1620628 -0.09842493
0000c0 df 84 2a 3e 0e fd af 3c 7d 94 c4 3a 36 a3 58 3d
       0.16652249 0.02148297 0.0014997866 0.052890025
0000d0 9e 16 87 3b 47 8b 94 3d 4b a6 ad bd 63 3e 51 3c
       0.004122569 0.072531275 -0.084789835 0.012771222
0000e0 ae 7b 62 3b fc e3 d9 bd c9 26 96 bc 40 8e 55 bc
       0.0034558582 -0.10639188 -0.018329041 -0.013034403
0000f0 75 8a 72 bd f8 f3 02 3e 9f a6 ab 3c 5d 97 39 bd
       -0.059214074 0.12788379 0.020953475 -0.045310367
000100 7a f0 0f bd a7 1e 2e 3d 36 b4 80 bd 7c d1 ee 3d
       -0.035141446 0.0425097 -0.062843725 0.1166105
000110 35 ec 95 3d 1a 54 38 be 95 db 13 be ff cf 51 3d
       0.073204435 -0.18000832 -0.14439233 0.05122375
000120 76 e1 1a bd ff 1e 07 3e 85 b3 27 b9 80 b1 2b bc
       -0.037812673 0.13195418 -0.00015993237 -0.010479331
000130 54 71 33 3c a5 e9 c6 bd 3f 58 56 3d f5 3b 3e 3c
       0.0109523125 -0.09712533 0.05233025 0.011610975
000140 8e 84 4a bd ee 3a 9e bc 67 80 b5 3c b8 4b 50 bd
       -0.04944282 -0.01931521 0.022155954 -0.05085346
000150 5b ac e1 3d 0b c3 a6 bd fc 50 cb 3c 70 ec d3 3b
       0.11019202 -0.0814267 0.02481889 0.0064673945
000160 54 be c5 3d 02 10 a5 3c 31 fe 31 bc 4d 2f e2 3d
       0.09655443 0.020149235 -0.010863827 0.11044178
000170 2e 8a f8 bb 4d 3d 8a 3d ed 64 b7 3d 44 98 d8 bd
       -0.0075848317 0.067499734 0.08954797 -0.10575917
000180 fc 98 6c 3e 6b 90 c5 3d 89 1b 8f 3c b1 88 32 bd
       0.23105234 0.09646686 0.017469184 -0.04358739
000190 1a 70 92 bc b6 ef 81 bd a0 70 20 bc e4 b5 dd bc
       -0.01787572 -0.06344549 -0.009792477 -0.027064271
0001a0 94 c8 8f bc 73 a8 e3 bc 86 08 6b bd f8 4a 3b bd
       -0.017551698 -0.027790284 -0.057381175 -0.045725793
0001b0 17 08 b9 3d 88 e4 d4 3d 08 49 76 bd 9d 0c 96 bd
       0.09034746 0.103951514 -0.06012824 -0.073266245
0001c0 9e a0 66 be 20 2d 8f bd 27 75 03 bd b9 b7 81 bd
       -0.22522208 -0.06991029 -0.032094147 -0.063338704
0001d0 9d 3e aa bb ac 4a f2 3c d1 43 43 3e e1 e0 fc 39
       -0.0051954524 0.029576622 0.19068839 0.00048232733
0001e0 da b6 44 3e e3 bd d7 3d 33 4b 16 bb 84 87 88 bc
       0.19210377 0.10534265 -0.0022933006 -0.016666181
0001f0 27 57 9f bd cf fe 24 bd ec f2 a9 bd 6f bc 6c 3b
       -0.07780295 -0.040282067 -0.08298287 0.0036123057
000200 2d 90 a1 bd 52 2e 3a bd 7a c0 1a 3d 71 83 b9 bd
       -0.078888275 -0.04545433 0.037781216 -0.090582736
000210 63 f7 26 bd 44 ae 80 bd 67 b3 9d 3d f3 29 93 bc
       -0.04076327 -0.062832385 0.07700234 -0.017964339
000220 c6 0c 8f bc e4 63 8c bd 88 21 1e 3c 07 2b a2 3d
       -0.017462146 -0.0685499 0.009651549 0.07918363
000230 9c fb 56 3b 3f b1 84 bd f2 b2 53 3d f0 4f 39 3a
       0.003280378 -0.064791195 0.051684327 0.00070691016
000240 15 de 27 bd df 6a 8e bc 00 96 04 bd bf 79 a5 bd
       -0.04098328 -0.017384944 -0.032369614 -0.08079862
000250 97 89 28 3c fd 60 6d 3c 50 1f 98 3d c6 88 0e bd
       0.01028671 0.014488456 0.074278474 -0.034798406
000260 40 3a 72 bd 4a 51 c9 3c 0a 4a 4f 3d d4 9d ee 3c
       -0.059137583 0.024574894 0.05060772 0.029127993
000270 2c e0 a9 bd d7 f5 f2 3c 62 39 24 3d b0 a8 7f bd
       -0.082947105 0.029658241 0.040093787 -0.062416732
000280 fd ea 40 bc e9 9f 6f 3d 5a b6 8b bd 34 86 9e 3c
       -0.011774776 0.05850211 -0.0682189 0.019351102
000290 36 98 92 3a 80 e5 63 bc a2 3c 94 bd 44 3d b3 bc
       0.0011184278 -0.0139096975 -0.07238127 -0.0218798
0002a0 9c 09 a4 bd c6 d7 97 bd 2c c4 a8 3c 53 bf b8 bd
       -0.08009645 -0.074142024 0.020601355 -0.09020867
0002b0 aa 3e 84 bd 5f 3f 70 bd 01 a0 87 3d e5 2b f4 3c
       -0.06457265 -0.058654185 0.06622315 0.029806087
0002c0 97 30 82 3d 7b a8 b6 bd 3e ec 9a bd af 1d fa bc
       0.06356924 -0.08918854 -0.07564591 -0.030531732
0002d0 a9 78 97 3d c0 58 ea ba 6b ac 94 3d d9 59 37 bd
       0.07396061 -0.0017879233 0.072594486 -0.04476342
0002e0 87 76 b6 3c 6d 23 ab bd 6a fd bd bd 4a 89 67 3d
       0.022273315 -0.08356366 -0.092768505 0.056527413
0002f0 31 51 ba bd e2 e7 9f 3c 01 07 9b 3d 19 46 94 bd
       -0.09097517 0.01951975 0.07569695 -0.072399326
000300 87 b1 a9 3d a7 ab 5c bd 6c 06 b3 bd c8 11 21 bd
       0.08285814 -0.053874638 -0.08741459 -0.0393236
000310 6d 31 6a bd d0 0d 11 bd ed b4 aa bd 9d 9d c7 bc
       -0.057176042 -0.035413563 -0.0833529 -0.024367148
000320 b2 2f 1b 3d e0 01 a7 bb 62 a6 55 3d e7 52 93 3d
       0.037887283 -0.005096659 0.05216063 0.07193547
000330 00 95 75 3b 3c 97 1e 3d af 47 94 3d 91 04 70 3d
       0.0037472844 0.038718447 0.07240235 0.058598105
000340 3b 23 8c 3d f7 51 ad bd b9 8d ae bd 5a 15 de bc
       0.06842657 -0.08462899 -0.08523125 -0.02710979
000350 b2 e2 79 3c 26 e3 52 bd 99 9e 9a bd 8d 42 f9 3c
       0.015251802 -0.051486157 -0.07549781 0.030427242
000360 f5 66 06 3c 9b 67 53 3b 56 af 0e 3d a2 52 15 bd
       0.008203258 0.0032257799 0.034835182 -0.036455758
000370 da 14 e1 3c 61 0a 37 bd cf a8 9e bd a2 b3 a3 bc
       0.027475763 -0.044687632 -0.077470414 -0.019983117
000380 bd 0d a0 3d 32 a6 7d 3d a1 3c ea 3c c8 54 a1 bd
       0.0781512 0.061926074 0.028593363 -0.07877499
000390 6e 0d 31 3d b5 2e 9f bd 97 44 e3 bb 00 af 56 bb
       0.0432257 -0.077725805 -0.006935667 -0.0032758117
0003a0 40 11 d4 bb bd 1b 92 bd be cc d0 3c 0b 0a 8f 3c
       -0.006471783 -0.07134197 0.025488254 0.017460844
0003b0 d4 70 2c bd 0a 47 4c 3d 82 af ce 3c 62 e6 08 bd
       -0.04209979 0.049872436 0.025230173 -0.033422835
0003c0 1a 81 ae bd ea 8d f3 bc 5a 75 d7 bc b9 e8 c1 bc
       -0.08520718 -0.029730756 -0.026301075 -0.023670541
0003d0 8d ef 9c 3d 6a e1 4d 3d e8 e9 9c bc 9a 58 8b bd
       0.07662878 0.0502638 -0.019154504 -0.06804009
0003e0 b9 3b f7 3c 1b c1 37 bd 6b f3 ad bd 99 e2 a4 3d
       0.030179845 -0.044861894 -0.08493694 0.080510326
0003f0 62 69 88 bd dd 09 93 bd 74 c1 82 3d 73 d4 6e bd
       -0.06660725 -0.07179616 0.063845545 -0.058308076

net.0.bias f4 [100]
000000 c5 46 9a bd 19 2f 18 3d 7b 77 85 3d 99 b5 b3 3d
       -0.075330295 0.03715429 0.0651693 0.087748714
000010 76 81 15 3d c3 ff a2 3a 67 b4 13 3c d5 9e b0 3d
       0.036500417 0.0012435842 0.009015179 0.08624045
000020 0f 33 93 3d 0b 89 0e bb 65 20 8c bd 3b e5 94 3d
       0.07187473 -0.0021749164 -0.06842116 0.07270285
000030 48 a5 fd 3c 85 60 c5 bd 87 86 dd 3c a8 ea 85 3d
       0.030962601 -0.0963755 0.027041687 0.06538898
000040 05 a9 c2 3b 22 a6 4a bd 05 35 02 bc ef 6a 0c 3d
       0.005940559 -0.049474843 -0.007947211 0.034281667
000050 4c c6 28 3d b7 70 5a bd 8d 03 93 bd 3c e3 00 bd
       0.041204736 -0.05333015 -0.07178412 -0.031466708
000060 ad a9 1b bd da 69 da bc ab bd 65 bd b2 38 59 bd
       -0.038003612 -0.026661802 -0.056089085 -0.053032584
000070 31 9a ea bc e3 04 09 bd e0 6f 45 3c 1b e5 80 bd
       -0.028637977 -0.033451926 0.012050599 -0.062936984
000080 05 22 08 bd 0d bb 28 3d 8c 34 82 bd 95 33 2b 3d
       -0.03323557 0.04119401 -0.06357679 0.04179724
000090 34 7a 0f bd 36 14 01 3c 62 28 35 bd 89 02 79 3c
       -0.03502865 0.007878354 -0.044227965 0.015198358
0000a0 a7 3a 86 bd 5a db 94 3d bf 95 8e 3d 6b 5d 73 3d
       -0.06554156 0.072684005 0.069621556 0.059415262
0000b0 c0 fa 9c bd e6 d0 9f 3d 31 a3 a2 bd 52 8c 07 bd
       -0.07665014 0.07803516 -0.079412825 -0.033092804
0000c0 39 41 e9 bd 42 06 36 3d d7 9c a1 bd a0 c6 b9 3c
       -0.11389393 0.04443956 -0.07891243 0.02267772
0000d0 d7 c1 70 3c c2 b2 d2 bb d2 5b 91 bc b0 f5 41 bd
       0.0146946525 -0.006430001 -0.017743979 -0.047353446
0000e0 74 c4 e3 3c cb 62 c2 bc a2 af da 3c 3d 64 10 3d
       0.027803637 -0.023728749 0.026695076 0.035251845
0000f0 a8 0d 8c bd 9a 98 f9 3c 15 57 3a 3d 26 cd 1e 3d
       -0.06838542 0.030468274 0.045493204 0.038769864
000100 b6 6d 51 bd 88 ba 8a bd b3 f7 42 3c c0 71 43 3d
       -0.05113002 -0.06773859 0.011899876 0.047715902
000110 f1 ca 64 3d 28 f5 89 3d b7 63 ad bd 91 26 41 3d
       0.055857603 0.06736213 -0.08466285 0.04715592
000120 c6 7b 96 3d 7f e1 50 bc 74 30 ab bd d0 8d 4b 3d
       0.07347827 -0.012749075 -0.08358851 0.04969579
000130 29 f7 f3 3c 8d 45 55 bb f5 53 72 bd 0d 2b 8f bd
       0.029780941 -0.0032542676 -0.0591621 -0.06990633
000140 3e ff 95 bd 04 a2 3b bd df 97 a7 3c 93 a3 5e 3d
       -0.07324074 -0.045808807 0.02045816 0.054355215
000150 05 62 96 bd 7c b6 32 3d 52 69 90 3c de a0 5b 3d
       -0.073429145 0.043631062 0.017628346 0.05362021
000160 7a c3 85 bd c5 13 b1 bd a9 c8 b7 3b 87 64 c8 bd
       -0.06531425 -0.08646349 0.0056086374 -0.09784799
000170 39 ba 86 bd 46 ef 28 3d 24 d2 50 bd 49 f7 94 bd
       -0.06578488 0.041243814 -0.050981656 -0.072737284
000180 8b 0f 9f 3c 19 1c d0 bc 06 dd 40 3d 26 3c 14 3c
       0.019416591 -0.025404023 0.047085784 0.009047544

net.2.weight f4 [80, 100]
000000 81 e0 0c bd d3 6f 8d bd 1c 3e a3 3c fb 32 02 be
       -0.03439379 -0.069060944 0.019927077 -0.1271476
000010 68 93 9a bd d3 cc a6 3d 60 53 cd bd 4a 60 b8 b8
       -0.07547647 0.08144536 -0.10025668 -8.791739e-05
000020 05 80 9a bd 9f c3 02 be d3 f7 d5 3c 91 27 d6 bd
       -0.07543949 -0.12769936 0.026119148 -0.104567654
000030 64 10 87 3d e6 34 a0 3d 61 cb a3 bd c0 4c d2 bd
       0.06594923 0.078225896 -0.07997776 -0.10268545
000040 11 e4 e6 bd 9e a7 1d 3d 80 f7 fa ba 5f 4a 42 3d
       -0.11273969 0.03848993 -0.0019147247 0.047434207
000050 db 54 a2 3d 73 fa 8e 3d 53 82 ac bd 96 47 0b bd
       0.07926341 0.06981363 -0.08423295 -0.034003817
000060 59 6c c9 bd 39 44 83 3d 29 28 75 bd c0 9c 9e 3d
       -0.09835119 0.06409497 -0.059852753 0.077447414
000070 b1 74 cc 3d dd 91 5a bd ca 9b 92 bb 51 0e d1 bc
       0.099831946 -0.053361762 -0.004474138 -0.025519522
000080 98 55 56 3c d7 b8 ce 3d 7c e7 7f bd 4b ae b5 3d
       0.013081931 0.10093849 -0.06247662 0.08871134
000090 dc de d8 bd 93 f7 88 bd de e2 dd b8 14 7f fa ba
       -0.10589382 -0.06687846 -0.000105803585 -0.0019111359
0000a0 47 17 2d bd fb 3a 20 3d 10 72 87 bd 95 0d bd bd
       -0.042258527 0.03911875 -0.066135526 -0.09231106
0000b0 b2 ad 8e 3b 41 96 ba bd 80 e4 cb 3c eb 8d 03 3d
       0.004354202 -0.0911069 0.02488923 0.032117765
0000c0 bd 0c 7c 3d bd 8f 9b bd 04 18 c8 3c 89 d4 a4 bd
       0.061535586 -0.07595775 0.024425514 -0.0804835
0000d0 bd a3 a5 3c b6 32 ef bc f9 df b0 bd 22 3f 0d be
       0.020219678 -0.029198986 -0.086364694 -0.13793615
0000e0 fe e9 e4 bd 0d 83 85 bd ab 4e 59 3c 59 ae 08 be
       -0.11177443 -0.065191366 0.013263385 -0.13347758
0000f0 16 bd 61 b9 d0 c0 69 bd ca 7d da 3d 48 28 a9 bd
       -0.00021528112 -0.057068646 0.106685236 -0.08259636
000100 37 d3 df 3d fa 76 31 bd cc 31 0d be 92 9e 22 3d
       0.10928958 -0.043326356 -0.13788527 0.039702006
000110 58 8f 69 bd d0 7c d8 3d 0b 4e 86 3d f3 c9 ac bc
       -0.05702147 0.10570681 0.06557854 -0.02109239
000120 fb 1e 1c bd b8 de bc b9 91 2a 84 3c e2 8d 9b 3b
       -0.038115483 -0.00036024093 0.016133578 0.0047471384
000130 e1 fb da bd d2 52 d3 3d ba c8 2d bd 81 54 ba 3d
       -0.10692573 0.10318531 -0.042427756 0.09098149
000140 1e 4e 37 3d b9 c5 ad 3c 0b 22 29 3d 4d 45 84 3d
       0.044752233 0.021212446 0.04129223 0.064585306
000150 40 66 cb 3c f0 5f 7d bd 25 b8 99 3c a2 d1 3f 3d
       0.02482903 -0.06185907 0.018764565 0.04683078
000160 9d 55 7c 3c 80 37 e2 bb 18 ce 64 3c 71 39 79 bc
       0.015401271 -0.006903589 0.013965152 -0.015211449
000170 6a cb 2a be a0 61 ae 3b e4 38 00 be 9a 31 c4 bd
       -0.16679159 0.0053216964 -0.12521702 -0.09579773
000180 69 8d 0a be 60 97 3b 3d f9 d4 8b 3d b3 d4 aa bd
       -0.13530506 0.04579866 0.06827731 -0.083413504
000190 77 25 aa 3d c7 1a 71 bd b3 5e e2 bd b6 65 04 be
       0.08307927 -0.058863427 -0.11053219 -0.12929425
0001a0 82 5f d3 3c 00 f2 71 3d b5 5b 61 3d 9b 65 bf bd
       0.025802378 0.05906868 0.0550191 -0.093455516
0001b0 1d 14 6c bd 7f 15 ac bd 33 79 83 3d e5 af d5 bd
       -0.05763637 -0.084025376 0.06419601 -0.1043394
0001c0 6c 17 bb 3c 68 66 97 3d 29 57 b7 3d 14 cf 49 3d
       0.022838317 0.07392579 0.08952171 0.04926975
0001d0 fd 4b 65 3d 55 2f 8d 3d 7d a7 c8 3d 46 74 71 3d
       0.05598067 0.068937935 0.09797571 0.058948778
0001e0 19 d4 53 3d 65 55 59 bc 84 3b a8 bd a7 9a 6f bd
       0.051715944 -0.013264989 -0.08214477 -0.058497097
0001f0 c4 33 24 3c a8 34 3d bc 56 32 97 bd ac e1 98 bc
       0.0100221075 -0.011548199 -0.07382648 -0.018662296
000200 c8 59 f9 bc 10 65 7a bd 4e 1c 51 3d b5 22 c8 bd
       -0.030438319 -0.061131537 0.051052384 -0.09772245
000210 58 f6 64 3d df 37 b3 3c 92 ba 34 3d b8 9c b0 3d
       0.055898994 0.021877227 0.04412324 0.08623642
000220 67 e2 5a bd 8e d1 8f bd 2d 23 31 bd 1a 11 0a bc
       -0.05343857 -0.07022391 -0.043246437 -0.008426929
000230 42 41 b1 bd 4e 80 d2 bd b6 94 76 3d 77 58 89 bd
       -0.08655025 -0.102783784 0.060200416 -0.067063265
000240 c8 0d a2 bc bd b3 9d 3d 2f 7f 90 3d 72 bc 06 be
       -0.019781962 0.07700298 0.07055508 -0.13157824
000250 2b 34 99 3d aa 09 0d bd 49 73 82 bd a8 64 5a bd
       0.074806534 -0.034433044 -0.06369645 -0.05331865
000260 25 60 12 bd 90 c4 77 bc 7c 18 86 bd 91 95 a6 bd
       -0.03573622 -0.015122548 -0.06547639 -0.08133996
000270 4e be 99 bd 0a 6b e5 3d c9 4e cc 3d 43 72 b8 3d
       -0.07507001 0.11202057 0.099759646 0.09006169
000280 f6 3d dd 3c 06 12 0f 3d e6 c9 fa 3c f0 c2 59 bd
       0.027007084 0.034929298 0.03061385 -0.053164423
000290 82 b0 dd 3c 41 66 1f 3d af c6 46 bd 6f 60 9b bd
       0.027061705 0.038915876 -0.048529323 -0.075867526
0002a0 ef 95 9c 3d d1 c7 20 bd 4f 67 38 3d 17 11 9f 3d
       0.07645785 -0.03925306 0.045020398 0.077669315
0002b0 a9 3e 16 3c 58 92 c2 bd 38 b0 96 3d 87 73 d5 bd
       0.009170213 -0.09500569 0.0735783 -0.10422426
0002c0 f4 a4 66 3d 5a f6 d6 bc ce 2d 24 3d d4 ab cd bc
       0.056309655 -0.026240516 0.040082745 -0.025106348
0002d0 42 07 36 3d 70 ab e5 3c aa 8f bc 3c 77 2d b8 3c
       0.044440515 0.02803585 0.023017723 0.022482617
0002e0 3f 0b 83 3d b4 d0 e7 bc ab c0 62 bc bb b6 23 be
       0.063986294 -0.02829776 -0.013839881 -0.15987675
0002f0 ad 84 5d bd 87 65 b1 3d 92 ab f9 3d b5 e8 a2 bc
       -0.054081608 0.08661943 0.121909276 -0.019886354
000300 4e 5b 43 3d f1 31 b9 3d 9a 6b 9f bd 90 ba a6 bd
       0.047694497 0.09042729 -0.07784195 -0.08141053
000310 45 8c 13 be 1c ba 1f 3d 93 35 5c bd 68 99 35 bc
       -0.14408977 0.038995847 -0.05376203 -0.011083938
000320 57 a4 05 bd b7 f3 9d 3d 29 69 8c bc 1f 20 12 bd
       -0.03262743 0.077125005 -0.017139988 -0.035675164
000330 c0 12 44 bd 87 98 a5 bd 83 f4 3b bd 58 48 e2 bb
       -0.047869444 -0.08085733 -0.04588748 -0.0069055967
000340 e4 33 68 bc b9 2e 70 bb 34 5b b2 3c b4 59 47 bd
       -0.014172528 -0.0036648943 0.021772005 -0.048669532
000350 9d 38 93 bd 23 0d f1 3c 17 02 14 bd a6 d7 9c bd
       -0.071885325 0.02942521 -0.036134806 -0.07658319
000360 4f 3e 0e bd b7 94 c6 bd b4 49 e6 3c 92 50 d4 bc
       -0.03472739 -0.09696334 0.028111316 -0.025917325
000370 2a 7b c2 bd cb 91 58 bc 94 3a 96 3d ad 84 88 bd
       -0.09496148 -0.0132183535 0.07335392 -0.06665931
000380 a1 81 d1 3d 12 6f 0c 3d 49 29 c4 bd f4 ea e7 3c
       0.10229803 0.034285612 -0.09578187 0.028310277
000390 b7 a8 20 bd 20 5d 02 3e 29 e7 d7 bc 8d a4 95 bc
       -0.0392234 0.12730837 -0.026355343 -0.01826694
0003a0 de 01 5f 3d 7c bc 54 3d 70 44 67 bd 73 ab 1c bd
       0.05444514 0.051937565 -0.05646175 -0.038249444
0003b0 00 36 c7 ba e7 1e 0a 3d 00 b5 a6 3c ac f4 b6 bb
       -0.0015198588 0.033720877 0.02034998 -0.0055833664
0003c0 e3 0c a6 bd a6 1c d1 bb 14 67 ef bc 9e b4 42 bd
       -0.08107927 -0.006381589 -0.029223956 -0.04753553
0003d0 c7 75 3a 3d 80 79 bf ba 2d 69 1c bd 48 50 37 bd
       0.045522477 -0.0014608353 -0.03818624 -0.044754297
0003e0 3e ca b0 bd 6c a7 8a 3c ea 5f 2b bc 7f 3d bc bd
       -0.08632325 0.016925536 -0.010459879 -0.09191417
0003f0 f6 18 0b bd c3 c8 46 3b 08 d3 14 3d a9 3d c9 bd
       -0.03395935 0.0030332066 0.036334068 -0.09826214

net.2.bias f4 [80]
000000 20 c3 b2 3c b4 2d 27 3d fb e0 d4 bd a7 31 da bd
       0.021821558 0.04081507 -0.10394474 -0.10654002
000010 2c e9 63 3d 33 d9 d2 bd a8 15 22 bd 65 93 c8 bd
       0.055642292 -0.10295334 -0.039571434 -0.09793738
000020 69 a9 37 bd 0f 8e 0e bd 1f 71 c2 bd d2 73 15 3c
       -0.044839296 -0.034803446 -0.094942324 0.009121852
000030 45 0f 4a 3d 6d 34 73 3c af be a0 bd 9f 3d c7 3c
       0.04933097 0.014844042 -0.0784887 0.024321375
000040 17 4a 12 bc 3f 1b ef bd a5 99 43 bc 24 97 cc bd
       -0.008928797 -0.11675119 -0.011938487 -0.09989765
000050 5d b5 a1 bd 48 f7 47 bd fd b1 8a bd b6 b2 03 be
       -0.078959204 -0.04881981 -0.0677223 -0.12861142
000060 11 f5 02 bd 2f 2d ec bd 9d a9 6b 3d ae 3c ce 3c
       -0.031971995 -0.115320556 0.057534803 0.025175419
000070 54 9b 12 b8 da 6b 3e bd 5d 90 bf bd dc b1 9f 3d
       -3.4953773e-05 -0.046489574 -0.09353707 0.07797596
000080 19 a6 a8 bc 77 d0 ee 3c 0d 01 b2 bd aa 5a d3 bc
       -0.020587014 0.029152138 -0.08691607 -0.025800068
000090 9a 71 9f bd 98 54 11 bd 02 a2 9e bd 0e 05 bf 3d
       -0.0778534 -0.035481066 -0.07745744 0.09327136
0000a0 8b 7c c4 3c 56 af 08 bd 2d ae 2b 3d fc 9f 67 bd
       0.023985168 -0.03337034 0.041914154 -0.056549057
0000b0 04 b7 93 bd 64 00 ba 3b 14 9c 7c bd 48 3f 8e bc
       -0.07212642 0.005676316 -0.061672285 -0.01736416
0000c0 36 80 6a 3d 71 5f e7 bb fc 24 8e bc c9 b1 96 bb
       0.057251178 -0.007060938 -0.01735162 -0.0045988304
0000d0 fd 68 88 bd d9 25 34 3c f9 90 b5 bb 2d 27 1b 3d
       -0.0666065 0.010995352 -0.0055409637 0.037879158
0000e0 ce 31 a2 bd 2a 91 da bb d4 b1 a5 3d ad 41 91 bc
       -0.07919656 -0.006670137 0.08090559 -0.017731512
0000f0 26 1e 90 bd 7c 41 13 bd 4d 8d d3 bd 6d d8 dd 3c
       -0.07037 -0.035951123 -0.10329685 0.027080739
000100 c5 74 58 bd ac dc 9e bd a5 6f 06 3d 79 20 ad bd
       -0.052845735 -0.077569336 0.032821316 -0.08453459
000110 eb 96 9e bc 03 45 86 3c b9 70 6f 3d 31 fb d2 bd
       -0.019359073 0.01639033 0.05845711 -0.10301817
000120 03 4d c4 3c b5 53 b0 3a ed 42 27 3d b5 ed b2 3d
       0.023962503 0.0013452681 0.04083531 0.08736745
000130 e7 ae ef bc f5 80 b8 bd 87 f9 f7 3b 0a 69 bf bc
       -0.029258205 -0.090089716 0.007567588 -0.023365516

net.4.weight f4 [50, 80]
000000 61 d2 fe bc ab c2 0a bd e0 67 17 be 26 f7 29 bd
       -0.031106176 -0.033877056 -0.14785719 -0.041495465
000010 5c 4f db bd 6d 2a 7a bd e8 19 c3 3c 51 12 ac bd
       -0.10708496 -0.061075617 0.023816064 -0.08401931
000020 1c 84 bb bd 92 1b 92 3b 79 21 1c be 43 dd b3 bc
       -0.09156057 0.004458853 -0.15247144 -0.021956092
000030 22 c0 a7 3b 77 d9 5d bc 99 d6 41 3d cc db 76 bc
       0.0051193396 -0.013540617 0.047323797 -0.015067052
000040 56 7e 51 bc c6 08 ad 3d 07 f0 9c bd a3 76 10 3e
       -0.0127864685 0.08448939 -0.07662969 0.14107756
000050 9b 05 fb bd 6a 03 8d bd c6 b0 df bd 0b 12 65 3d
       -0.122569285 -0.06885417 -0.10922389 0.05592541
000060 38 1c 23 3c 8b 2f 08 3e 65 59 1d 3c 37 bb 21 3c
       0.009955458 0.13299386 0.009603833 0.009871296
000070 12 25 35 bd 80 64 fc bc b2 34 d7 3d 5a c0 06 3e
       -0.044224806 -0.03080964 0.10508098 0.13159314
000080 64 a5 0d 3e 7f 96 31 3c 99 e6 14 bd dd 53 3b bc
       0.13832623 0.010839104 -0.036352728 -0.011433569
000090 28 bc c5 3c a7 b0 15 3e 8c 3d 19 3d e0 05 f4 bc
       0.024137571 0.14618169 0.03741221 -0.029787958
0000a0 b3 94 d6 bd 21 f8 c3 bd 25 83 2f bd 21 c4 c5 3b
       -0.10477581 -0.09568811 -0.04284968 0.0060353433
0000b0 e3 0f 7b bd c9 7c ab bd 94 4c a9 3d 4a b1 db 3c
       -0.061294448 -0.0837341 0.08266559 0.026817936
0000c0 9d ec 4d 3c 9a 20 dc bd 9a 58 2e bd 77 fb 1e 3c
       0.01256862 -0.10748406 -0.042564966 0.009703509
0000d0 e2 12 a7 bd ef 38 de bc 7d bc 11 bd 52 8a c4 3d
       -0.081578985 -0.027126757 -0.035580147 0.09596695
0000e0 46 9b 3a 3d 13 0e 96 bd 8f 9c 7c 3c fc c8 d2 bc
       0.045558237 -0.07326903 0.015418186 -0.025730602
0000f0 e4 02 84 3d 04 72 ae 3d 20 ff 7c be f3 b5 b4 bd
       0.06445864 0.085178405 -0.24706697 -0.088237666
000100 b6 64 28 be 5e 81 b1 3c 52 48 85 bd 3d 2f dc bd
       -0.16444668 0.021668132 -0.06507935 -0.107511975
000110 48 cb e0 3d c8 9e e9 bd 3a a2 cf 3b 72 82 a4 bd
       0.10976273 -0.11407238 0.0063364776 -0.08032693
000120 14 c0 da bd 49 60 e7 bd 07 cc d9 bc 0c a6 c6 3a
       -0.10681167 -0.11297662 -0.026586546 0.0015155687
000130 00 7c e7 3d af 34 1b be 50 70 fa 3c 7d 38 9e 3d
       0.11302948 -0.15156816 0.030571133 0.07725618
000140 93 66 6f bd 15 d2 cb 3d e9 46 b1 bb 1b 84 8d bd
       -0.05844743 0.09952179 -0.0054100645 -0.06909963
000150 45 37 93 3d e4 6c 02 3e 54 7d 1d bd e9 f3 10 be
       0.07188276 0.12736851 -0.0384496 -0.14155544
000160 8e 2b 80 bd 13 13 97 bd 4f 5c 62 3d b1 52 1a bd
       -0.062583074 -0.07376685 0.055263814 -0.037676517
000170 cb d5 9e 3d 10 18 97 bc 76 66 ba bb c7 b5 8d 3d
       0.077556215 -0.018444091 -0.005688484 0.06919437
000180 bd 6a 63 3d 20 d5 35 bc 3a cf 39 3c 03 ba 1e bc
       0.055521715 -0.011098176 0.011340911 -0.009687903
000190 59 32 45 bd 7c 6e 32 be 09 ac d7 bc e0 7e e6 3d
       -0.04814372 -0.17424959 -0.02632715 0.11254668
0001a0 71 35 36 be c2 67 eb bd 1e d6 9d bd 04 da ce 3d
       -0.17793824 -0.114943996 -0.07706855 0.10100177
0001b0 ff ed 20 3e 7c f6 ec bc 74 c1 a5 bd 5c 8f d9 3c
       0.15715788 -0.028926127 -0.08093539 0.026557617
0001c0 40 3c 1c 3e c9 1e 8c 3c 5b ad 2f 3d 02 ff 16 be
       0.15257359 0.017104523 0.042889934 -0.14745715
0001d0 8b 20 cb 3d f3 04 ac 3c 22 d8 f7 3b 3c af ee bd
       0.099183165 0.020998454 0.007563607 -0.11654517
0001e0 ca b1 32 be a9 7d 03 3e c2 40 1b be 20 6c b5 3d
       -0.17450634 0.12840904 -0.15161422 0.08858514
0001f0 75 b6 99 bd 97 4f 0f bb 83 b3 e9 ba 98 ba b2 3d
       -0.07505504 -0.0021867508 -0.0017829988 0.08726996
000200 54 87 2f bc 7c d4 8e 3d a7 00 37 3d bf b2 81 bd
       -0.010713417 0.06974122 0.044678356 -0.06332921
000210 6e bb 63 bd 53 e4 c4 bd e1 2a 67 bd b0 31 9a bd
       -0.05559867 -0.09613862 -0.056437377 -0.075290084
000220 81 52 4b bd 73 81 e8 3b aa ac e0 3d ee 25 e4 bd
       -0.04963923 0.0070955097 0.10970433 -0.11140047
000230 9a 4f a6 bd 7c 49 54 3d 17 ba a8 bd ea 4e b3 bd
       -0.081206515 0.051827893 -0.08238619 -0.08755286
000240 b8 5b be 3c ce c8 cb bd bc 58 84 bd 68 1f d3 3a
       0.023237094 -0.0995041 -0.06462237 0.0016107382
000250 10 d7 3d bd bd 76 fa 3d e2 01 06 3c cc 62 d2 bc
       -0.046347678 0.12229679 0.00817916 -0.025681876
000260 70 43 82 bd 4c 3c 01 3e b4 06 74 3c 42 7f 18 3d
       -0.06360519 0.12620658 0.014894176 0.037230738
000270 24 9e 01 3e d8 28 0f bd 73 e1 52 3d 86 bd ea bc
       0.12657982 -0.03495106 0.051484536 -0.028654825
000280 17 dd f1 bd 1d f2 84 bd 42 d1 92 bd 4f 09 07 3c
       -0.11809748 -0.06491492 -0.07168819 0.008241965
000290 1e df 9c bd 99 8d 12 3d d2 5e 28 bd 69 38 49 bd
       -0.07659744 0.03577957 -0.041106053 -0.049126063
0002a0 6e f0 47 3d a3 70 a0 3d 92 53 bb bd 2f 44 a3 3c
       0.048813276 0.07833984 -0.09146799 0.019929973
0002b0 b8 0a ba bd ca f1 dc 3c ef 97 76 bc 30 05 cb bd
       -0.09084076 0.026970763 -0.015050872 -0.09913099
0002c0 64 0f a7 3d 31 e8 5a 3d 47 de 2f bd 2c 84 80 3d
       0.081572324 0.05344409 -0.04293659 0.0627521
0002d0 92 75 a2 3d d4 c9 60 bd de bd d9 bd 78 44 31 bd
       0.07932581 -0.05487998 -0.106319174 -0.043278188
0002e0 77 aa c0 3b b8 06 91 3d 9d 11 8f bc 76 47 dc bc
       0.005879696 0.070813596 -0.017464453 -0.026889544
0002f0 cc 0d a9 3d 89 c9 03 be d7 07 b7 3c b6 71 99 3c
       0.08254585 -0.12869848 0.022342606 0.01873098
000300 54 e2 05 3d d0 de 8d 3c ff 89 b9 bd 29 a1 f7 bd
       0.032686546 0.01731816 -0.09059524 -0.12091286
000310 b9 3c e1 3d 4d 8f ca 3d 17 c2 81 bc 6c 93 26 bd
       0.1099791 0.09890614 -0.01583962 -0.040667936
000320 c8 e8 ed bd 9b 61 aa 3c 4a dd 19 bd a0 34 13 3b
       -0.11616665 0.020798495 -0.037564553 0.0022461787
000330 76 d6 f6 bd 39 df 0d 3d 5d 6f 3b 3d 12 26 b3 bd
       -0.12052624 0.03463671 0.0457605 -0.08747496
000340 8a bc fb bd cb 6c 6d bd d1 ec 96 bd 4e b0 2f bd
       -0.1229182 -0.05796508 -0.07369388 -0.042892747
000350 60 86 c2 bd 53 03 a6 3d b8 a3 b7 3d 49 52 90 bd
       -0.09498286 0.08106103 0.08966774 -0.07046945
000360 6a 6a a2 3d 44 c3 a6 3d 75 f9 1a bd 0e 4a bf 3c
       0.07930453 0.08142713 -0.037835557 0.023350742
000370 52 bd e7 bc af f5 20 bc 38 3e cb bd e1 8d cf bd
       -0.028288517 -0.0098242005 -0.09923977 -0.10134483
000380 40 09 12 bb 02 17 71 bd 2b d4 63 bc aa 9c bb bd
       -0.0022283345 -0.058859833 -0.013905565 -0.09160741
000390 92 e5 87 3d b5 f0 c1 3d 6e f4 14 bb 3a 12 ca 3d
       0.06635584 0.09469739 -0.00227287 0.09866758
0003a0 98 ba a0 bd dd 76 30 bd 54 a8 d4 bd b4 9c ec 3c
       -0.0784809 -0.043082107 -0.103836685 0.028883316
0003b0 19 45 28 3c 9b 8f 83 bd c9 c3 81 3d c9 7f 8b bd
       0.01027038 -0.06423875 0.06336171 -0.068114825
0003c0 02 f6 07 be ce a4 5a 3d ee 66 f7 bc 6e 5e ae 3d
       -0.13277438 0.053379826 -0.030200448 0.08514105
0003d0 a9 65 94 3d 8a a8 61 bc dc af 45 3d 86 b7 9e 3c
       0.07245953 -0.013773093 0.048263416 0.01937462
0003e0 34 02 91 3d 31 8c cf 3d 5a ec d1 3d 8b 61 14 bd
       0.07080498 0.10134161 0.102501586 -0.036225837
0003f0 ae 8b 21 bd 78 80 c9 3d f3 0a a6 bd 00 21 07 bd
       -0.03943985 0.098389566 -0.08107557 -0.032990456

net.4.bias f4 [50]
000000 06 11 4f 3c 42 92 fd 3c 8d 55 3d bc 75 07 23 bd
       0.012638336 0.03095353 -0.011556041 -0.039802033
000010 24 fd 92 bc 6d 09 38 3d 09 20 bf 3c 8f d2 01 be
       -0.017942972 0.044930864 0.023330705 -0.12677978
000020 3b 4e 2b bd b7 f2 fb 3d 5a f5 c3 bb 03 4e d4 bc
       -0.041822653 0.123021536 -0.005980176 -0.025916105
000030 6f 68 95 3c b7 b8 a7 bc ce 0f 09 bd 87 ad b3 3c
       0.018238274 -0.020473821 -0.03346234 0.02193333
000040 2e e2 28 bd 3b 0f 01 be 36 d5 9b bd 18 f5 73 bd
       -0.041231327 -0.12603466 -0.07609026 -0.05955991
000050 20 16 1f 3d cc bd e3 3c 26 d1 64 3d b0 1a f1 bc
       0.03883946 0.027800463 0.055863522 -0.02943167
000060 84 05 18 3d 85 72 32 bd 2a b4 12 be c8 f2 fc bd
       0.037114635 -0.043566246 -0.1432654 -0.12350994
000070 f4 3a e9 3d 29 07 75 bd 86 e8 e3 bd 60 9e 80 bd
       0.113881975 -0.05982128 -0.11128335 -0.06280208
000080 88 f5 27 be 1c c0 99 bd 19 50 1c bd ce cc cf bd
       -0.16402256 -0.07507345 -0.038162325 -0.10146485
000090 cb ed e7 bd 56 e9 21 bd c5 28 70 3d 9e 00 45 bd
       -0.11324652 -0.039529167 0.05863263 -0.04809629
0000a0 0e af e2 bb 1c 53 44 3d 38 14 04 bd b5 00 02 be
       -0.006917841 0.04793082 -0.032245845 -0.12695582
0000b0 5f b2 52 bd 9e 73 94 bd 8f e2 96 bd a8 ef af bd
       -0.05143964 -0.07248615 -0.07367431 -0.08590633
0000c0 5f 07 32 bd e3 ae c8 3d
       -0.04346406 0.09798982

net.6.weight f4 [25, 50]
000000 04 6d cc bc 50 5f 5d 3d 29 d4 02 bd 18 1c 8d bd
       -0.024954326 0.054045975 -0.031940613 -0.06890124
000010 42 8b b6 bd 71 7f 0d 3e 13 dd 07 bd a5 2b 80 3d
       -0.0891328 0.13818146 -0.033169817 0.062583245
000020 3e 77 be 3d 66 ee cd 3d 7d a7 35 3d 5b 17 1c 3d
       0.093000874 0.100552365 0.044349182 0.03810821
000030 a2 fc 0c 3e f8 ec 70 bd 94 c5 98 bd 63 96 db 3c
       0.13768247 -0.05881974 -0.0745956 0.026805108
000040 46 f6 a0 3c 35 e6 f2 bd 1a 8c f8 bd cf c6 f7 3d
       0.019648682 -0.11860315 -0.12136097 0.120984666
000050 a9 5b 26 be e7 cc 1e 3e 52 54 86 bd 98 9c e9 bd
       -0.16245903 0.15507852 -0.065590516 -0.11406821
000060 4f f9 f2 bd 9b df 36 bc ca 8f 86 bd ef 14 af bd
       -0.11863958 -0.01116171 -0.06570394 -0.08548915
000070 cb a8 cb 3d c3 35 d5 3c 05 00 30 bd a3 06 a6 3b
       0.09944304 0.026026612 -0.04296877 0.005066709
000080 0c 02 99 3d 8c 00 11 bd 31 89 21 3e 20 36 73 bd
       0.074710935 -0.035400912 0.1577499 -0.05937779
000090 8b 91 b7 bd bb 31 7b bd 33 e4 e4 3b 18 55 e2 3b
       -0.08963307 -0.061326724 0.0069852113 0.0069071166
0000a0 f3 7f 8a 3d a7 7e aa 3d f8 5c a6 bc ad 1e ad bd
       0.067626856 0.08324938 -0.020308003 -0.084531166
0000b0 7c 44 44 3e 4a 93 82 bd e2 e4 9e bd f1 33 0e 3d
       0.1916675 -0.063757494 -0.077585 0.034717504
0000c0 b8 dd 8d 3d 91 7e ee 3d 49 c1 a9 bc d8 6e d7 3d
       0.06927055 0.116452344 -0.020722048 0.10519189
0000d0 c6 09 ac 3c 68 20 1d be 54 5b 2f be 48 cf 9c bd
       0.021000754 -0.15344393 -0.17124683 -0.07656723
0000e0 dd 65 cf 3d 9b d8 10 3e f3 31 db bd ed 65 93 3d
       0.10126851 0.14145128 -0.107028864 0.07197175
0000f0 f3 eb 9d bd ab 13 a0 bc c1 f9 ec bd c5 3e 2e 3c
       -0.07711019 -0.019540628 -0.11571074 0.010635083
000100 c3 37 24 bd aa 5f 0d be 1d bd 87 bd 82 e3 fc bd
       -0.04009224 -0.13806024 -0.06627867 -0.12348081
000110 45 c8 22 3d 30 fc f3 bc d0 e1 91 3c 0d a4 2c 3d
       0.039741773 -0.029783338 0.017807871 0.04214864
000120 79 46 67 bd ae fe 04 be 80 df 52 3d f1 3e 03 be
       -0.056463692 -0.12987778 0.051482677 -0.12816979
000130 68 42 b9 bc 38 ab 95 3d 7e b4 2d be 52 19 07 bc
       -0.022614673 0.07308048 -0.16963384 -0.008245783
000140 1f 61 ce bd a0 e4 f9 3d 9b 19 f4 bb bc a0 cd bc
       -0.10077118 0.1220181 -0.0074493415 -0.025101058
000150 03 2c dc 3c 7c 91 e9 bb ab 1e a1 bd c4 c8 aa 3d
       0.026876455 -0.007127939 -0.078671776 0.08339074
000160 63 a7 5e 3d a4 83 71 bc 24 2b ba bb 8c 45 97 bb
       0.05435885 -0.014740858 -0.0056814123 -0.004616445
000170 43 48 7a 3d e2 88 e3 3d 2e 3f b9 3d 49 b7 8a bd
       0.06110407 0.11110093 0.09045254 -0.0677324
000180 65 8d 3e be 30 97 ce 3d da a9 c7 3d 4c ab b5 3c
       -0.18608625 0.100874305 0.097491935 0.022176407
000190 f7 e0 06 bd 96 81 92 3c 74 25 be bd 7e 1e ef bd
       -0.032929387 0.017884057 -0.09284487 -0.11675738
0001a0 57 89 94 bd 5c fe 0b 3d 19 98 5e 3d 77 8b 70 bc
       -0.07252758 0.034178123 0.05434427 -0.0146816885
0001b0 1e d9 23 be f2 06 09 be 3d ef b1 3c 9f f4 19 3d
       -0.16000792 -0.13381556 0.021720523 0.037586804
0001c0 50 bc 9b bb ef fa 28 3d 95 be 0c be 3f d3 e0 3d
       -0.004752673 0.041254934 -0.13744576 0.10977792
0001d0 f1 fa f1 3d 40 d6 f3 3d 03 87 76 be 93 45 39 be
       0.118154414 0.11906099 -0.2407494 -0.18092947
0001e0 18 37 68 bd ef 48 0c bd f0 b5 eb 3c f1 81 d2 3c
       -0.056693166 -0.034249242 0.028773278 0.025696727
0001f0 c1 1b fa 3b e9 08 ac bd 8f 2a ec bd d1 be 1a 3d
       0.007632703 -0.08400137 -0.11531555 0.037779633
000200 8e 60 e6 bd 6b f6 14 bd 48 48 84 bd a5 b4 45 bd
       -0.11248885 -0.036367815 -0.06459099 -0.04826798
000210 c6 92 bc 3d bd 1f d2 bd 8a 5f d6 bc 8c 33 05 bc
       0.09207682 -0.1025996 -0.026168603 -0.0081299655
000220 c7 1e f0 3d 27 13 16 3d 5c ac 0e 3d 15 56 b4 bd
       0.1172462 0.03663936 0.034832343 -0.08805481
000230 ad 37 df 3d 97 44 0b 3d 9b e3 b3 3d 34 32 85 3d
       0.10899291 0.03400096 0.08783647 0.06503716
000240 50 83 99 bd 7a 42 b8 3d dd 8b 04 3d 69 8b 08 be
       -0.07495749 0.089970544 0.032359947 -0.13334431
000250 53 7e db bc 80 7a 8d 3d a7 51 f4 3c ab aa 1e bd
       -0.026793635 0.06908131 0.029824091 -0.03873698
000260 a9 7c 15 3e f7 a5 2c bd fe 2e d9 bd b9 ef 0c 3e
       0.14598335 -0.042150464 -0.10604666 0.13763322
000270 af 57 6e bd e8 86 df 3d e8 97 47 bc fa 6f 6f be
       -0.05818909 0.10914403 -0.012182213 -0.2338256
000280 54 44 c8 3d d8 6b 1d be 74 80 b0 3d 5a 4e 09 be
       0.097786576 -0.1537317 0.086182505 -0.13408795
000290 81 e5 1b 3e a7 2f d8 3b bf 4d 14 bd cf ae 17 be
       0.15224268 0.0065974775 -0.036206957 -0.14812778
0002a0 16 66 fa 3c ed f1 26 bd 14 e2 c0 bd 14 f0 45 bc
       0.030566256 -0.040758062 -0.09418121 -0.012081165
0002b0 c2 1e b0 3d 3a fd f0 3d 73 c5 02 be 19 3b 86 bc
       0.085996166 0.11767049 -0.12770633 -0.016385602
0002c0 d2 03 7b 3d 96 35 0d be 20 25 99 3c dc 9f 83 3d
       0.06128294 -0.13789973 0.01869446 0.06426975
0002d0 a3 1b cc bd 6d 64 06 3e 8d 37 dd bd dd d5 f0 bd
       -0.09966209 0.13124247 -0.10801611 -0.11759541
0002e0 9e 76 b1 bd dd 51 66 bc 8a 72 3b bd 5e 2d 5f bd
       -0.086652026 -0.014057604 -0.04576353 -0.054486625
0002f0 7c 19 11 be 8b bf c3 bd 8f f0 2c 3c 34 18 a4 3d
       -0.14169878 -0.09558018 0.0105554005 0.08012429
000300 e5 78 1a 3d 85 e8 9c 3d d9 bb 1f bd 3a 48 9a 3d
       0.03771295 0.07661537 -0.038997505 0.075333074
000310 20 d4 80 bc b7 a4 40 3d d5 1c 32 bc a8 70 0e 3c
       -0.01572615 0.047032084 -0.010871132 0.0086938515
000320 bc 13 54 bd 77 c5 ce bd 51 71 9f 3d 31 9a f3 3d
       -0.051776633 -0.10096257 0.07785285 0.11894644
000330 47 50 77 bc 46 24 c7 bc 4d a1 91 3d 3b f2 c4 bd
       -0.015094823 -0.024309289 0.07110844 -0.09616514
000340 c1 80 40 3d 69 90 16 bc 67 b8 b6 bd df 3d 9e 3d
       0.04699779 -0.0091897035 -0.08921891 0.07726645
000350 38 7d 0c 3e fa b9 2c 3c 58 ce 3e 3d d3 56 2d bd
       0.13719642 0.010542387 0.046583503 -0.04231913
000360 b4 7e eb bc 94 23 0c 3e b2 66 f9 3d 66 60 90 3c
       -0.02874694 0.13685447 0.12177791 0.017624091
000370 e9 f2 2e 3e d1 d7 b8 3d cc 9d 8c 3c 72 a7 01 be
       0.1708485 0.09025539 0.017165087 -0.12661532
000380 dd c7 80 bd a4 35 34 3d 61 c9 47 3c fe d2 8a 3d
       -0.06288121 0.04399647 0.012194009 0.06778525
000390 d4 e2 06 3e 9c 22 81 bc a3 e6 75 3c 5d 88 ab 3d
       0.13172466 -0.015763573 0.015008601 0.083756186
0003a0 7b 2b a4 bd a6 14 08 be d1 6e 6b 3c e3 c1 b3 bd
       -0.08016106 -0.13289127 0.014369682 -0.08777215
0003b0 f4 c2 7f bd 6b 25 af 3d 2f c9 c3 bd a8 12 d1 bd
       -0.06244178 0.08552059 -0.09559857 -0.102086365
0003c0 91 65 c7 bd 80 91 be bd da de 46 3e 2d 40 8d bd
       -0.09736169 -0.09305096 0.19420949 -0.06897006
0003d0 f2 b0 df 3c 8a 18 a7 bd 4c 16 04 bd 4e 8d 43 3e
       0.027306054 -0.08158977 -0.032247826 0.19096872
0003e0 e4 24 9f bd 1c eb 3d bd d1 ae f2 bd dc db 46 bd
       -0.07770708 -0.046366796 -0.1184975 -0.048549518
0003f0 21 55 8f bc 83 ac a6 bc c2 df 58 bd 79 b3 d0 3d
       -0.017496647 -0.020345932 -0.052947767 0.10190482

net.6.bias f4 [25]
000000 81 4d bb 3d 74 67 3a 3d b4 7b 29 be 7f 79 36 bd
       0.09145642 0.045508817 -0.16551095 -0.04454946
000010 30 05 ee 3d e2 d1 e3 bb 0c 2a b5 bd 66 80 43 bd
       0.11622083 -0.00695251 -0.088459104 -0.047729872
000020 0a 4a 28 be 67 13 b0 bd 38 cf 92 bd 40 e1 49 bd
       -0.16434494 -0.08597451 -0.0716843 -0.04928708
000030 8f 45 11 3e 76 af fc 3d 4b d6 ef bc 58 26 94 bc
       0.14186691 0.12338154 -0.029276988 -0.01808469
000040 c6 ee de bd 6f a1 31 3b 24 c6 43 3d 45 88 b3 bc
       -0.10885386 0.0027104279 0.047796384 -0.021915564
000050 30 0b bb bd ca bb e1 bd 25 df f7 bd 24 a0 9e 3d
       -0.09132993 -0.11022146 -0.12103108 0.07745388
000060 01 4e 2a 3d
       0.041578297

net.8.weight f4 [10, 25]
000000 ea 68 e4 3d 60 d0 63 3c 14 c7 92 bb 0f ec 18 3c
       0.11152823 0.013904661 -0.0044792984 0.0093336245
000010 97 ca 92 3d 0c bd 49 3d 59 bc 0e be b7 dc 04 3e
       0.07167547 0.049252555 -0.13939036 0.12974821
000020 20 09 c6 3d fa 87 b6 bc 15 c8 ac bb 3e 6d f1 bd
       0.09669709 -0.022281636 -0.005272875 -0.117884144
000030 ec e4 1e bd 21 95 f9 ba c6 46 17 3e 99 2a de 3d
       -0.038792536 -0.0019041636 0.14773092 0.108479686
000040 2c ee 2b bc d1 6f d8 bd 12 5e 5e bd 59 36 86 3d
       -0.010493796 -0.10568202 -0.05428893 0.06553335
000050 87 ea 0c bc 10 1b 94 bd 16 1d 01 bd e3 01 8f bd
       -0.008600838 -0.07231724 -0.03152188 -0.06982782
000060 79 32 9e bd 73 4e 4d 3e 06 d2 ab bd 01 91 d9 bd
       -0.07724471 0.20049457 -0.08389668 -0.106233604
000070 8b 3b fb 3d 4c 0a 80 be 41 0e 64 bc f9 5c 21 be
       0.12267216 -0.25007856 -0.013919414 -0.15758123
000080 59 f4 30 be 49 e4 46 be 00 8e 50 3e 59 dc c5 3b
       -0.17280711 -0.19423021 0.20366669 0.0060382304
000090 57 b8 88 be 4c dd a3 be 4f af 07 3e 87 2e cd bd
       -0.2670314 -0.32004774 0.13250469 -0.1001864
0000a0 e8 4f 89 be 9e e7 4e bd e7 b2 f9 bd 6f 36 be 3d
       -0.26818776 -0.050513856 -0.12192326 0.09287726
0000b0 12 f4 67 3d a6 40 58 be 18 0d 9d be ef ef 45 3e
       0.056629248 -0.21118411 -0.30674052 0.19329809
0000c0 6c bc 31 be bf 09 8b bc 75 b4 a5 3d 60 11 b6 bd
       -0.17357033 -0.01697242 0.0809106 -0.08890033
0000d0 85 4c 76 bd 4a d9 93 bc 4c d3 0d 3e ba e7 39 3d
       -0.06013157 -0.018047947 0.13850135 0.045387007
0000e0 35 3e 1c 3e dd cd ea 3d fb c5 e9 bd 6d 7c 6b bd
       0.15258105 0.114650466 -0.11414715 -0.05749171
0000f0 39 68 65 3d f3 55 a3 bd 12 56 f1 3d bd d6 31 3e
       0.056007598 -0.07975378 0.11783995 0.17367072
000100 b1 59 92 bb b3 46 0c bd 64 d4 de bd 99 57 0f be
       -0.0044662585 -0.03424711 -0.10880354 -0.1399826
000110 d4 19 09 3e 39 18 ee bc 02 aa 3b bd 22 80 ab bd
       0.13388759 -0.029064285 -0.04581643 -0.08374049
000120 cc 19 af 3d 03 d3 c6 bd 8c 02 74 bd 87 6c 7a 3d
       0.08549842 -0.09708216 -0.05957274 0.061138656
000130 3a 30 4b bd 4a 8b 88 bd 65 96 05 3e 12 d7 f5 3d
       -0.04960654 -0.06667192 0.13045652 0.12003912
000140 49 93 37 3d ad d1 5c bc 3f c4 47 3e 2d fb f3 3b
       0.044818196 -0.013477725 0.19508456 0.007445714
000150 fd 18 03 3d 1f 82 3a 3c f0 fe 50 be 9d 9b 3b 3e
       0.032006253 0.011383562 -0.20409751 0.1832108
000160 b9 00 44 3e a9 27 7f bd 42 db 31 3c ba 50 9c 3d
       0.191409 -0.062293682 0.010855498 0.07632585
000170 8b 33 44 3e 9f 9c ba bd fd c7 17 bd f9 b3 2d bc
       0.19160287 -0.09111904 -0.037055958 -0.010601991
000180 ac 93 14 be bd a4 14 3d af 22 ae bd 00 85 22 bd
       -0.14509457 0.03628992 -0.08502709 -0.03967762
000190 71 6a b0 bd 91 ac 98 3c 64 58 64 bd 8d 98 e1 bd
       -0.08614052 0.018636974 -0.05574836 -0.11015425
0001a0 e6 24 09 bd 3c 46 ad 3d 52 32 bd 3d e3 7c ff bd
       -0.033482455 0.08460662 0.092381135 -0.12474992
0001b0 b3 31 a0 3d 12 b3 ac bd ef 88 bb 3d 29 e4 c2 bc
       0.078219794 -0.084325925 0.091569774 -0.023790436
0001c0 b5 34 1a be 81 b2 f3 bd 4c 49 b0 3b 36 0d f5 3b
       -0.15059169 -0.11899281 0.0053798314 0.0074783815
0001d0 93 48 36 3e b3 39 e3 bc 0e 84 18 3e 6d ee 34 3d
       0.17801122 -0.027737474 0.14894125 0.044172693
0001e0 6d 2b 17 3e 8e 00 f2 bd 41 e2 2b 3e 5c a5 8c bd
       0.1476266 -0.11816512 0.16785528 -0.06867477
0001f0 6e 6a 81 bd 70 99 83 3c e7 00 cc bb 41 66 d7 3d
       -0.06319128 0.016064376 -0.0062256935 0.1051755
000200 9a 0e 13 3e f5 98 8d 3d 50 d8 0f 3d 55 32 17 3e
       0.14361039 0.0691394 0.0351184 0.14765294
000210 9b dc 05 be 36 4b e0 3d 9e 07 8f bc 00 e6 24 3e
       -0.13072436 0.10951845 -0.017459687 0.16103363
000220 8c 40 c6 3c 0f b1 4c bd 52 12 3c 3e e4 35 1c 3d
       0.0242007 -0.049973544 0.18366364 0.03813733
000230 91 49 45 bc 54 84 e8 3d 89 f1 97 bd 0f 9a 08 3c
       -0.012041465 0.113533646 -0.07419116 0.008337512
000240 81 93 a0 3d 31 fe 19 3d 13 8e 13 3e dd 54 1b be
       0.07840634 0.03759593 0.14409666 -0.15169092
000250 49 1b 14 bd 14 96 54 bc 54 a5 99 be b6 9a 50 bd
       -0.036158834 -0.012975235 -0.30008948 -0.050928794
000260 c3 e3 ac bd 56 a8 eb 3d 3a 88 58 3e dc 79 5a be
       -0.084418796 0.11506717 0.21145716 -0.21335548
000270 16 5d 2d 3d 4c 7d c6 bd a1 5e be 3d 80 4d be bd
       0.0423251 -0.09691867 0.09295393 -0.09292126
000280 65 8e 02 3e 13 51 2e 3e 38 e3 58 be 9d d2 74 be
       0.12749632 0.17023115 -0.21180427 -0.23908468
000290 46 52 15 3d 50 44 ca be 34 e3 01 3e 62 da 01 3e
       0.036455415 -0.39505243 0.12684327 0.12680963
0002a0 7a 9f 03 3e 65 43 80 be 8e fe 15 be 5b 13 93 be
       0.12853804 -0.25051418 -0.14647886 -0.28725705
0002b0 81 77 3d bc 70 ff 28 be ed 3e 5b 3e 34 33 14 be
       -0.0115641365 -0.16503692 0.21410723 -0.14472657
0002c0 06 b8 ce 3d 28 2f 10 be 65 b7 2e be 26 aa e9 bc
       0.100936934 -0.14080489 -0.17062147 -0.028523516
0002d0 ee 5b 28 3d f1 12 0c bd 01 eb 95 bb 96 ed 2b be
       0.041103296 -0.03419775 -0.004575134 -0.1678985
0002e0 4e d6 14 3d 74 10 fa 3d 33 ad 8b 3d d2 11 fe bd
       0.03633719 0.122101694 0.068201445 -0.12405743
0002f0 ca f6 15 3e 22 bf c5 bd 22 9e c2 3d cd 90 37 3e
       0.14644924 -0.09655596 0.09502818 0.17926331
000300 50 e8 da bd b9 43 5e 3c ad 01 ce 3d 80 b0 86 bd
       -0.10688841 0.013565951 0.100589134 -0.065766335
000310 85 94 32 3d ee 03 eb bd 26 06 0e be 7b 01 00 3e
       0.04359867 -0.11475359 -0.13869533 0.12500565
000320 f7 67 1f 3e 5d 94 05 3e 00 ce 12 bd 0a a4 8a bd
       0.15567003 0.13044877 -0.03584099 -0.06769569
000330 58 91 47 3d da 3b 0a be e6 a9 99 3d 9e 8a dc 3d
       0.048722595 -0.13499394 0.07503109 0.10768627
000340 82 8b 27 bd e6 7a ca bd 03 e3 8f 3c f7 23 c2 3b
       -0.04090453 -0.09886722 0.017564302 0.0059246975
000350 b2 0c d7 3a 95 f5 06 3e 26 8a 13 be a8 14 77 3d
       0.0016406982 0.1317962 -0.14408168 0.060322434
000360 ce 7f 06 be ea 6b 35 3d 42 37 89 3d 8c e9 47 3d
       -0.13134691 0.044292368 0.06699993 0.048806712
000370 dd e0 31 3e 9c 70 1b 3c 48 f4 7b 3d 56 3e c3 bd
       0.17370935 0.009487297 0.06151226 -0.09533374
000380 84 20 47 bd f6 28 ca 3c 06 e7 0e 3e 96 74 d9 3d
       -0.048614994 0.024677735 0.13955316 0.1061794
000390 8d 55 d3 bd e2 df 30 3e db f0 2a 3e a8 1b 04 3c
       -0.10319052 0.17272905 0.16693442 0.008063234
0003a0 fc 00 1b 3e 69 c8 2f 3e 67 ee 11 be b3 a3 3c bd
       0.15137094 0.17166294 -0.142511 -0.046054553
0003b0 2b 4a ce bc cf ce d3 bc a8 05 df 3d a8 71 6b bd
       -0.02518185 -0.02585545 0.10889751 -0.057481438
0003c0 21 fd 83 bc 80 77 24 be e7 8b ea 3d 6b f2 06 bc
       -0.016111912 -0.1606121 0.114524655 -0.008236508
0003d0 ca ae 1f 3e b9 9d f9 bc 4e 87 4b bd 97 8c 06 3e
       0.1559402 -0.030470716 -0.049689583 0.13139568
0003e0 db dd a6 3d 81 8d c7 3b
       0.08147784 0.0060898666

net.8.bias f4 [10]
000000 15 e5 c3 bb 68 19 12 bd b0 92 f9 bd 0e 09 51 bd
       -0.0059782364 -0.03566876 -0.121861815 -0.051034026
000010 c8 09 65 bd eb 12 57 be 38 b4 54 be 08 32 55 3e
       -0.05591753 -0.2100331 -0.20771873 0.20819867
000020 47 10 4b 3c be 5a 2c 3e
       0.012394018 0.1683149
