neuralNetworkWeights/sounds.pt (torch_old, 107496 bytes, 10 tensors)

net.0.weight f4 [100, 128]
00000000: 3ba3 7e3c d1fe 4fbd eb56 733d 3700 77bd
00000010: ca85 09bc ac8f 5f3d 5ed1 bfbd 2878 1fbc
00000020: 5309 51bd 4ae8 353d 03d4 873d c843 933d
00000030: fc70 4abd 73e7 8138 6f63 5fbd 0485 233d
00000040: f7f8 f43c 880d 413a 7c6b 7abd d0f4 a03d
00000050: 8aa8 07bd 271e acbd 8c3f 3e3d d64d 73bd
00000060: 157e 95bd 5339 853c bc5f 833d a583 0a3b
00000070: 1290 e5bb 8456 133d 4404 be3c 6f37 91bd
00000080: a27f 0b3d 5a9c bbbd 650b 51bd e7f2 523c
00000090: 327d 8abd ea95 7c3d 3d3b 17bd 59b4 e93c
000000a0: 543d 8abd 4824 50bd 6b14 6cbd 6e93 403d
000000b0: 8e53 a6bd a432 aabd eca8 053d c772 b8bd
000000c0: cd6f 173d 577b 9bbd bc3b d7bc 2403 92bd
000000d0: 10eb 49bd 5f50 fe3c f719 1bbd 9214 603b
000000e0: c9a2 53bd 8f94 173d d4d4 e5bc 4a02 743d
000000f0: 63d8 a03d 5c41 a7bd 103a f2bb 352d b1ba
00000100: a833 c93a 2ed7 ff3c 6325 3bbd 9359 a6bd
00000110: 8e00 e93c bcd1 35bd 7ce2 bc3c d3ce aabd
00000120: ac4b aebd 9ac7 c1b9 a17e 833d 85a8 223c
00000130: 2678 523d 66d9 0b3d eb6d 123c 3d9b 9e3d
00000140: 7ccf b2bd 1d98 62bd d418 683d 7e28 7b3d
00000150: d476 fabc ce99 98bd b01d adbd 83db 9a3b
00000160: c7bc 40bb c557 78bd 7605 533d 874f 18bd
00000170: 129d 88bd ef3f b9bd 2e41 9abc 3a79 683c
00000180: 43e3 a0bc 1a55 053c 2858 c93c cad8 833d
00000190: c4b5 cbbc 607c b6bd e0cd 863d df95 b4bd
000001a0: 22b5 8cbd f741 f73c ec18 dd3b 02b0 6abd
000001b0: 9664 5c3d 10f8 6f3c a8e0 a2bd 4aba 30bd
000001c0: 97d4 31bd 99da 4ebd dcda 113d 7a25 043d
000001d0: d07b 36bc 3df9 89bc 72b1 c4bc 01d6 da3c
000001e0: c817 933c b58b f0bc 2b97 8c3d 96d0 913d
000001f0: 153d 8bbd 496b 763c efde 86bc 7e2d 4abc
00000200: 8262 3b3d 5055 0c3d cfb5 213d 3aa4 7abd
00000210: 4270 a1bd a999 4dbd 347f ad3c 3285 a4bb
00000220: be47 cf3c 6088 9abb 39ac a5bd 85b5 c93c
00000230: b55a a3bc 562c bcbd 7e3a 8dbd 2366 01bd
00000240: 16f5 afbc 876b e4bc 3f18 a8bd 00a1 7fbd
00000250: a541 d9bc f5e1 4fbd 904d 0dbd 1a7e aabd
00000260: 6eac d43c bedc 09bc 6a31 3fbd 983f b8bd
00000270: 5558 a23d d06e e53c e454 06bc d339 ff3c
00000280: 74ce 263d 83b5 a13c 26dc b0bd e76b adbd
00000290: 3556 f0bc b22a 23bd b961 b53c afb9 65bd
000002a0: 5b67 5bbd 1fb3 853d 0342 553c 9284 b9bd
000002b0: 5ba4 42bd 64ce 053d 070d 6ebd e11d c2bd
000002c0: 072a edbc 87b3 e3bb 467a 26bd d0fc 40bc
000002d0: 0abd fabb b32d 9e3d d786 c53c c5b7 12bd
000002e0: 7b0e 7fbd 3041 733d bfee 6f3c e611 67bd
000002f0: 8918 2cbd fa60 adbd f7d0 113c 4a92 47bd
00000300: 3565 4a3d ba0a 9b3d b228 0f3c 5733 4bbd
00000310: 0180 04bd c4a0 acbd 76c6 95bd 8ed9 213c
00000320: 59a9 d1bc 2a7e bfbd 4385 9d3d 0961 84bd
00000330: 3349 1bbd febd 21bc f25f 043c 3572 dc3c
00000340: 50e8 4b3d 775f 563c eadc b7bc 9901 9abd
00000350: b76a d73b c28c 5e3c 1899 23bd 9623 13bd
00000360: 9dbc 583d 48b5 b0bd e4a3 e13c ab58 99bd
00000370: d88e a7bd e102 b0bd 7bba 863d a352 b7bd
00000380: 19da 44bc c651 63bc 5148 48bd d412 3bbd
00000390: 09e8 fb3a 943b 9b3d 12a1 a53d c7c1 a33d
000003a0: bcce 8dbd 0eee 3cbd 2fb4 e5ba 119b 643d
000003b0: f9e4 c73b d530 e9bc b094 b83d 7657 7b3d
000003c0: cd61 39bd bb9d 973d ed04 99bc 4e0e 103c
000003d0: 885f 11bd e88d b8bd 4eea 96bc daea 923d
000003e0: 0bab c8bd 5fc6 4fbc 1e16 8d3c ba45 22bd
000003f0: 91a3 553d 2a40 e3bb 2c74 ec3b a499 ac3d
0.015541847 -0.05078012 0.059409063 -0.06030294 -0.008393714 0.054580376 -0.093661055 -0.009733237
-0.051034283 0.04441098 0.06632235 0.071906626 -0.049424157 6.19431e-05 -0.054538187 0.039921775
0.029903872 0.0007364382 -0.06113766 0.07859194 -0.033119716 -0.084041886 0.04644732 -0.059400402
-0.07299439 0.016262686 0.06414744 0.0021135595 -0.0070057 0.03597118 0.023195393 -0.07090651
0.034057267 -0.09160681 -0.051036257 0.012875295 -0.0676216 0.061666407 -0.03692173 0.02852838
-0.06749979 -0.05081585 -0.05763666 0.0470156 -0.081214055 -0.0831044 0.0326318 -0.09006267
0.036971856 -0.075918846 -0.0262736 -0.07129505 -0.04929644 0.031044183 -0.03786656 0.0034191948
-0.051668916 0.03700691 -0.028055586 0.059572496 0.078537725 -0.08166763 -0.0073921755 -0.0013517501
0.0015350478 0.031230535 -0.04568995 -0.08122554 0.028442647 -0.04438947 0.023057215 -0.0834023
-0.08510527 -0.00036960543 0.06420637 0.0099278735 0.051384114 0.034142874 0.008937339 0.07744453
-0.08730981 -0.055320848 0.056664303 0.061317913 -0.03057424 -0.07451211 -0.08452928 0.004725875
-0.0029409395 -0.06063058 0.05151888 -0.03718522 -0.06670584 -0.090453975 -0.018829908 0.014189059
-0.019639617 0.008137966 0.024578169 0.064378336 -0.024866946 -0.089104414 0.06582236 -0.08817648
-0.06870486 0.030182822 0.0067473557 -0.05729676 0.053806864 0.014646545 -0.07953006 -0.04314641
-0.043415632 -0.05050144 0.03560911 0.032262303 -0.011137918 -0.016842479 -0.024010394 0.026713373
0.017955676 -0.029363493 0.068647705 0.07119863 -0.0679876 0.015040227 -0.016463725 -0.012339948
0.04574824 0.034261048 0.039480027 -0.061191775 -0.078827396 -0.05019537 0.02117882 -0.005020761
0.025302764 -0.004715964 -0.080894895 0.024622688 -0.019940713 -0.09188144 -0.06895922 -0.031591546
-0.02147917 -0.027883304 -0.082077496 -0.0624094 -0.02652056 -0.0507526 -0.034497797 -0.08324833
0.025961127 -0.008414445 -0.046677984 -0.089965045 0.07927004 0.028006941 -0.00819895 0.031155502
0.040724233 0.019739872 -0.0863574 -0.08467846 -0.029337982 -0.03983564 0.022141324 -0.056085285
-0.053565364 0.06528305 0.013016227 -0.09058489 -0.047520023 0.032667533 -0.058117893 -0.09478355
-0.028950704 -0.0069488916 -0.040643953 -0.011779025 -0.0076519297 0.0772356 0.024112148 -0.035819788
-0.06226967 0.05938834 0.014644324 -0.056413554 -0.042015586 -0.084657624 0.008899919 -0.048723496
0.049412925 0.07570405 0.00873773 -0.04960951 -0.032348637 -0.08429101 -0.07313244 0.009878529
-0.025593447 -0.09350236 0.07691433 -0.064638205 -0.037911605 -0.009871958 0.008079516 0.026909927
0.049782097 0.013084284 -0.022444207 -0.07519836 0.0065740007 0.013583364 -0.039940923 -0.03592261
0.05291425 -0.08628327 0.02754397 -0.07487615 -0.08181542 -0.08594299 0.06578537 -0.089513086
-0.012014889 -0.013874477 -0.04889709 -0.045672253 0.0019218932 0.07579723 0.08087362 0.079959445
-0.06924197 -0.046125464 -0.0017525012 0.055811945 0.0061002937 -0.028465668 0.09012735 0.061362706
-0.045259286 0.074031316 -0.018679107 0.008792473 -0.035491496 -0.090114415 -0.018422272 0.07173701
-0.09798249 -0.012681573 0.01722246 -0.039617278 0.052157942 -0.006935139 0.007215997 0.08427742

net.0.bias f4 [100]
00000000: e36c 90bd 5a2f 60bd 9adb d7ba 3d5a 85bd
00000010: d8a6 c4bd 42fb 3e3d 570e d1bb 7c6a 443d
00000020: 0e3d 6a3c 85df 0d3d eee7 ccbd 05a3 9bbd
00000030: d6fa 4cbd 0eb5 88bd 0d1d bbbc d314 c7bb
00000040: a903 2abd 819e 043d bbc7 aa3b 8b9b c0bd
00000050: 6f8a 423d 1fb1 09bc e558 32bd 8b6e e43c
00000060: fe1c a2bd ecde e5bd 8fee 0fbd 4ccb 76bd
00000070: f0fa 533d 2f77 ad3c 9190 acbc 9674 93bd
00000080: 03e3 4b3d 7b7f c23c ef46 35bd 0d71 94bd
00000090: d5ae 8fbd 68d6 29bd 2b21 b4bc 529b 563d
000000a0: c98c 163c 4ad2 52bd 9a83 e9bc f9cd 6ebd
000000b0: 384e c2bd 2243 70bd 3732 093d b2f1 35bd
000000c0: 0412 8dbc 6cdc 443d 02a4 c63c 154c 94bd
000000d0: 5348 13bd 34fa 4ebd d8f9 22bc 2f71 cfbc
000000e0: 78e0 7b3d aa7b 08bc 928e 7abd adbc 9abc
000000f0: 6910 98bd a89e b63c 21fe 4839 e92a bc3c
00000100: bf6f 01bd 3521 fc3b 53db 00bc 0814 0bbd
00000110: aa33 51bb ab3b 2e3d 8afb 27bd 11b8 83bd
00000120: ed8c 1e3d 89fe 82bc 582b 1b3c a6ba f4bc
00000130: 31fe da3c 27fd babd ad55 343d 8ff1 63bd
00000140: 54eb 81bd 2b35 a73c 89ef 98bd b69a d0bb
00000150: a074 4a3d 5949 da3c a31e 6f3d 9ade 06bb
00000160: 5308 523d c7b4 5d3d 1d42 34bc 1b52 c9bd
00000170: 2ff0 9fbd 48f7 c2bd 9f86 79bd 31ec a4bd
00000180: 6711 5cbd 2237 833d fd3a 13bd 2cd8 763d
-0.070520185 -0.054732658 -0.0016468645 -0.06511352 -0.096021354 0.046626337 -0.0063798833 0.047953114
0.014296783 0.034636993 -0.100051746 -0.07599453 -0.050043903 -0.066751584 -0.022841 -0.0060754805
-0.041507397 0.032377724 0.005211798 -0.094046675 0.0474953 -0.008404045 -0.043541808 0.027884742
-0.07915686 -0.112241596 -0.035139617 -0.060252473 0.051752985 0.021174995 -0.021065028 -0.071999714
0.049777042 0.023742428 -0.0442571 -0.07248125 -0.070157684 -0.04146424 -0.021988472 0.05239422
0.009188839 -0.05147008 -0.028505135 -0.0583019 -0.09487575 -0.058657773 0.033495154 -0.04441995
-0.017220505 0.048061773 0.024248127 -0.07241074 -0.035957646 -0.05053158 -0.009947263 -0.025322525
0.061493367 -0.008330265 -0.061171122 -0.018888796 -0.07425005 0.02229245 0.00019168157 0.02296968
-0.03160071 0.0076943883 -0.007864791 -0.03395465 -0.0031921663 0.042537373 -0.04101137 -0.06431592
0.038708616 -0.015990512 0.009470783 -0.029874157 0.026732536 -0.09130316 0.04402702 -0.05565029
-0.063437134 0.020411095 -0.07467563 -0.006366099 0.04942763 0.026646303 0.058378827 -0.0020579458
0.05127747 0.05412748 -0.011002091 -0.098301135 -0.07809483 -0.095198214 -0.0609194 -0.080528624
-0.053727534 0.06407 -0.035944927 0.06026475

net.2.weight f4 [80, 100]
00000000: 723b 753d 0c3f 893b 7599 95bc 4215 8e3d
00000010: 8964 bd3d 108e 24bc ceff 48bb a507 3a3c
00000020: be2e 7cbc 1847 a9bc 6183 32bd 8d1a ac3d
00000030: 2a48 473d be4b ec3d b6e6 383c 4f1f 85bd
00000040: 7e4e af3d 2d66 32be 3678 1d3d 056d 39bc
00000050: d19a 483e 68a6 a3bd 7b39 49bc 9769 1a3d
00000060: c067 82bc 9d46 c7bb 8c51 913c e166 05be
00000070: 544a 4ebd 6e0d 1b3e dd11 7bbd 56b7 eabd
00000080: 2f78 ee3d 28d7 47bd 5ba2 40bd 6ddb 14bd
00000090: a317 033d d250 153e 7021 a1bd 2baf 753d
000000a0: e3ce 64be 96dd 013d 34f0 86bc fa7c 37bd
000000b0: 2066 84bd d977 293e cee3 913b 08eb b43d
000000c0: c5a2 923c 722b ba3d 6555 b83c 232e 5abd
000000d0: cefd 973c c8e0 843d c797 963b 8594 82bd
000000e0: 91dc 113d 52ae e63c 25b7 7ebb 7d9e b4bd
000000f0: 1619 bd3d 1284 93bd 2434 953d 9b82 22bd
00000100: aa8e 9abb c90a 1d3d c210 753d e026 9abd
00000110: 387e 3bbe 260e c73a 3d01 31bd f74b a53d
00000120: 8d2c 65bd 318f 583e 9214 0b3e 043a f63c
00000130: 588e 80bd eb11 1ebd c35c c3bb aae6 39bd
00000140: 4226 b4bd 7cfe 103d cd81 8cbd 0558 c23c
00000150: f41d c63c b7de 4bbe 72ea 33bd 9be1 f73d
00000160: d194 2c3d 79e2 d1bd 142c 0e3c a51f 993d
00000170: 2d20 163d 33e8 e4bd d0f8 373c 07c4 0d3d
00000180: 90be b3bd 1dd1 263c 6677 72bd 5632 473b
00000190: 94bb f2bb a00f 4a3d ec3c 1b3d dc5a 803c
000001a0: 4bc3 ed3c b525 8f3d fbc4 a33d a83f b3bc
000001b0: d71d ce3d ef69 0c3c 65f3 d6bb a7bf 07be
000001c0: c675 803d 4771 2bbd 6d52 e13d 42ad 2dbd
000001d0: d500 e5bd 4d1e 86bd 3a06 713d 7ab6 8b3d
000001e0: d5ed e83b 99c6 b23c cebe 99bd 410b 6fbd
000001f0: 00f5 a03d fc2b 653d 82c7 67bb 0ac0 26be
00000200: 9455 fa3c 8b7b eebd 187e 3d3d 09ff 2ebb
00000210: bc6b db3d 2cd4 5f3d e3c0 983d ce90 ed3d
00000220: f512 4e3d 78cc 87bd 31de cebd bd1f 433e
00000230: a9fa d53d 569c 253d ac1b 613d 806b edbc
00000240: cabd 293c 0a5f 02be 4d10 813d 6e20 3cbc
00000250: b0fc 68bd 2eaa 263d aab1 13bc 3dac a43d
00000260: b979 193e c0b7 783d 7faa 8b3c e431 863d
00000270: 814b 28bd 1102 4b3b 4b56 223c 645e 963d
00000280: cf96 a3bc af8d 7dbd 973f c2bc 3be3 afbd
00000290: ca48 ce3b c03b 40bd 53bc 173d 3645 8a3c
000002a0: 9ad8 073e 02bd afbd 6e4a ae3d 244f 9cbd
000002b0: c2a1 973d ad3e 3ebc fefe f2bb 9564 0abc
000002c0: 77f0 cc3d 0160 01bd 8e5f 05be 09bf 023b
000002d0: 8e73 f3bc fcf2 2bbd 657c 8abd ce63 c1bd
000002e0: 4b40 06bb 90ef 06be fce1 a23d c05e a3bd
000002f0: f7b4 123d 6c28 66bd 079a 15be e298 3f3c
00000300: 9251 afbd 9506 08bc 44e9 ce3d 6f79 9d3d
00000310: 8e22 debc 80fc fabc 6fd2 96bd 2594 843d
00000320: 18cd 963c 79c7 a53d 9f4f 523d 00b9 e5bc
00000330: 96b4 03be 8f1a cc3d 5d5d a5bc 99be 8a3d
00000340: fc88 a43d f8ff b23c c90e 023d bf28 66be
00000350: 938d f23c f651 e6bd 665d 6b3d baac f83c
00000360: 7c91 c23d 7791 34be 012b 3dbe d1af aabd
00000370: 0c5a 233d 1550 93bd d82a d3bd 7f93 ad3d
00000380: c240 cd3c e0e8 62bd 77b0 3dbd 4881 07be
00000390: d4f6 ecbc 0148 613d b585 733d 4b98 6e3c
000003a0: aeaa 47bd df2d 383d 5a5d 6dbd c4ec 8b3d
000003b0: b123 a03d f912 153c aab8 453d 2d8c 32bd
000003c0: 2055 c9bd 02e9 6f3d 3a80 0f3d d8dc b3bc
000003d0: 44b9 0a3c 30c6 0fbe 941f dcbd 8d84 8abd
000003e0: 3044 b33a 5ecb a23b ca3c c3bd 6157 c03d
000003f0: d44c 953d fda2 7bbd a547 453d 79e4 8d3d
0.059871145 0.004188424 -0.01826165 0.06937648 0.09247691 -0.010043636 -0.003067005 0.011354362
-0.015392004 -0.020663783 -0.043582324 0.08403502 0.048652805 0.11537884 0.0112854745 -0.06500112
0.08559893 -0.1742179 0.03844472 -0.011317496 0.19590308 -0.07990724 -0.012281771 0.037698355
-0.015918612 -0.006081416 0.01773908 -0.13027526 -0.050363854 0.15141842 -0.061296333 -0.1146075
0.11644017 -0.048789173 -0.047029834 -0.036342073 0.032004964 0.14581612 -0.07867706 0.059981506
-0.22344546 0.03170546 -0.01647196 -0.04479692 -0.06464791 0.16549625 0.0044522053 0.08833891
0.01789988 0.09090318 0.022501657 -0.053266656 0.01855364 0.06488186 0.00459573 -0.06375984
0.03561074 0.028159294 -0.0038866487 -0.08819292 0.092333004 -0.07202925 0.07285336 -0.039675336
-0.004716714 0.038340364 0.059830435 -0.07526946 -0.18309867 0.0015186712 -0.04321407 0.0807113
-0.05595069 0.21148373 0.13582066 0.03005696 -0.0627715 -0.038591307 -0.005961986 -0.045385994
-0.087963596 0.035398945 -0.06860695 0.023723612 0.024184205 -0.19909178 -0.043924756 0.12103578
0.04213411 -0.10248274 0.008677501 0.07476739 0.03665178 -0.11177101 0.011228755 0.034610774
-0.08776581 0.010181692 -0.0591959 0.0030394993 -0.007407615 0.049331307 0.037899897 0.015668325
0.029023787 0.06989614 0.079965554 -0.02188094 0.10064285 0.008570178 -0.0065597766 -0.13256703
0.062724635 -0.041856077 0.110020496 -0.04240156 -0.11181799 -0.06548748 0.05884383 0.06821914
0.00710843 0.021823214 -0.07507096 -0.058360342 0.0785923 0.05595015 -0.0035366719 -0.16284195
0.030558385 -0.11644658 0.04626283 -0.0026702306 0.10713908 0.054645702 0.07458665 0.11599885
0.050311048 -0.06630796 -0.101009734 0.19055076 0.104482 0.040432297 0.05495803 -0.028981924
0.010360191 -0.12731567 0.06301937 -0.011482341 -0.056881607 0.04068964 -0.009014526 0.08040664
0.1498784 0.060722113 0.017049072 0.06552485 -0.04108763 0.0030976573 0.009908269 0.07342222
-0.019969372 -0.061902698 -0.023711963 -0.08588263 0.006295298 -0.046931982 0.037044834 0.016878705
0.1326622 -0.08580972 0.0851029 -0.076322824 0.074039 -0.011611623 -0.0074156513 -0.008446832
0.100068025 -0.031585697 -0.13024732 0.0019950292 -0.029718187 -0.041979775 -0.067620076 -0.09442864
-0.00204851 -0.13177323 0.07953259 -0.079770565 0.035817113 -0.056190893 -0.14609538 0.011694165
-0.0856048 -0.0083023505 0.10103086 0.07689177 -0.027116086 -0.03063798 -0.07364356 0.06473569
0.018408343 0.08094687 0.051345464 -0.028042316 -0.12861857 0.09966003 -0.02018612 0.06774635
0.0803394 0.021850571 0.03175238 -0.22476481 0.029608523 -0.112461016 0.05746212 0.0303558
0.09500405 -0.17633615 -0.18473436 -0.083343156 0.039880797 -0.07193009 -0.10310906 0.08475398
0.025055293 -0.05539787 -0.046310868 -0.1323291 -0.02892629 0.05500031 0.059453685 0.014562677
-0.048746757 0.04496562 -0.057950355 0.06832269 0.078193076 0.009098762 0.048271812 -0.043590713
-0.098306894 0.058571823 0.035034396 -0.021955892 0.008467022 -0.14040446 -0.107482105 -0.06763563
0.0013676938 0.004968091 -0.09533079 0.09391666 0.072900444 -0.061434735 0.04816403 0.06928343

net.2.bias f4 [80]
00000000: bd19 90bc d69c 7e3d 1c42 e33c 22b9 dcbd
00000010: 56df 8bbe 5ff6 68be 4aef e9bd 36ce 24be
00000020: 5b51 d2bd 339f d2bd 868d 0dbe 1f8c 1dbe
00000030: 7921 7cbd 210a 66be b53d d9bd 424a 9cbd
00000040: c26c c8bd fb04 8cbd 613c 7cbd 591c 3bbd
00000050: ab92 cbbd 296e a7bd 4e86 cabc c76d 123d
00000060: fb36 7fbd 9c89 36be bc98 0fbe 6c0c 9e3d
00000070: bbf1 223d f2c6 3cbd 8e59 8bbd 9158 85bd
00000080: 8d7c a3bc 7100 bfbd e456 6abd 51d2 86bd
00000090: e6d0 d83b 4256 7dbd aef9 a83d 8eb9 2a3d
000000a0: 432f 98bd abdb b3bd 68d3 85bd 9724 59bd
000000b0: d5c0 23be dd47 17be 64d2 38be 94aa 22be
000000c0: 6f55 1ebe 53a0 0dbe 442e 55bd df57 17bd
000000d0: 9622 40bd f83f 3dbe 89c1 86bd f786 3fbd
000000e0: 40b9 6ebe 53a7 9bbd c3f4 30be 77f2 4dbe
000000f0: 5d74 b53d 5192 a5bc 0442 bbbc cbec c1bc
00000100: 85c6 bc3c a7e2 b23d 9fb9 18bd eeb3 cebd
00000110: c4a4 bebd 8cf8 413d 2f44 71bd e4cb 2f3d
00000120: db98 3abe 4607 3d3d c7a8 18be 5ead 23be
00000130: 4b55 febd f7dc e0bd 370f d7bd 8e32 d63c
-0.017590398 0.06216129 0.027741484 -0.10777499 -0.2731883 -0.22750233 -0.11422594 -0.16094288
-0.102694236 -0.10284271 -0.13823518 -0.15385483 -0.06155536 -0.22464801 -0.10607473 -0.07631351
-0.09786369 -0.068368874 -0.06158102 -0.04568133 -0.09940084 -0.08175308 -0.024722245 0.035749223
-0.062308293 -0.17825931 -0.14023107 0.07717213 0.039781313 -0.046088167 -0.068041906 -0.06511033
-0.019956851 -0.09326256 -0.05721177 -0.065830834 0.0066166995 -0.06184984 0.082507476 0.041680865
-0.074308895 -0.08782133 -0.06534463 -0.05301341 -0.15991528 -0.14773507 -0.18049008 -0.15885383
-0.15462278 -0.1383069 -0.052046075 -0.036949035 -0.046907984 -0.18481433 -0.06579883 -0.046759572
-0.23312855 -0.07600274 -0.17280869 -0.20112024 0.08860085 -0.02021137 -0.022858627 -0.023672482
0.02304388 0.08734637 -0.037286397 -0.100929126 -0.0930877 0.047356173 -0.058902916 0.042919055
-0.18222372 0.046149515 -0.14908133 -0.15984103 -0.12418612 -0.10979646 -0.10500949 0.026147153

net.4.weight f4 [50, 80]
00000000: 04d2 1cbd 0a71 7c3d 42f4 823d 66f6 6fbd
00000010: 9835 093d 76de 383d acfd 60bd bb6b 56bd
00000020: 987e c5bd 5078 8a3d a909 febc 90e3 9bbc
00000030: 3e55 563c 5425 573d 89f2 a4bd cf37 fa3d
00000040: fc38 b8bd 13d4 72bc d13e 813a 99ce 89bd
00000050: 3e84 0ebe 5c44 13bd c065 19be 1039 aebc
00000060: da39 553d b880 d63d 07db 87bd 6030 1cbe
00000070: 7a5e 193d 87a0 81bd 310d f1bd a81e b43d
00000080: 527f 733d 41a9 68bd a5ad d6bd a2f6 b9bc
00000090: e0a4 1ebc 2c6c 97bd 2ddf 14be d53d 36be
000000a0: 667f c4bd 3463 66bd 38e7 69bc 05fc 9d3d
000000b0: d3bf 003d 099f 0e3e 20d3 0f3d 796c 43be
000000c0: 7de6 ab3d 34ae bbbc 9e45 dcbd 0fa4 9c3c
000000d0: ac24 60bd 0cf2 fcbd a7f0 20be b73e c93c
000000e0: 89f2 b2bd 83ae aebd e10c 383d 2fd7 513d
000000f0: 3231 3ebe 11d9 48be 96e3 813d 3697 f6bb
00000100: 6564 50be 223c 58bd 7d0d b8bd f84b 6a3b
00000110: 9e3e 313d e553 bdbc 63c7 bc3d da4f aebc
00000120: a763 93bd 0bca a8bc ca54 a43c 5317 3e3d
00000130: fb16 943d 1b99 e53d b186 c2bb 38be 37bd
00000140: cc47 833d b4f8 18bd 1e19 41bd 81a2 00be
00000150: 0e27 fbbc b446 6fbd cd73 bfbd 3d3e 7fbc
00000160: 7290 8b3c 94cb afbd 0d6e b5bd 8012 403d
00000170: 48dd d5bd 2fbe 8cbd 8a0c c83b f8d3 b2bd
00000180: 68e1 b4bd fe3e c23d bade fc3b 93e3 6bbd
00000190: 483f 6a3d 79de d8bc a832 8dbd e42f 20bc
000001a0: 6912 c8bd fde2 fdbd 5686 cdbc c27b a1bd
000001b0: 790e acbd 8f56 933d ce2c a1bd 134a babd
000001c0: 8306 15be e9de aabd b64d 5b3d 28ab 703d
000001d0: 7609 63bb d2b8 02be b550 0fbb c603 efbd
000001e0: 392c 48be 734b 84bd 7412 b33d bd9b 94bc
000001f0: d75d af3a e8cf 38bc 45dc edbc ca81 bdbd
00000200: 37d4 1bbd 3eb1 d23d f4c0 2bbd 4057 b53b
00000210: 3e45 7b3d 3188 b3bd 55d4 6abd 22c5 393d
00000220: 7c68 b3bd 5056 18bd a7cf e0bd a6a6 baba
00000230: a1d1 00be dc49 83bb fcf4 b93d c522 1f3d
00000240: d445 89bc fd99 56bd 687f a6bd 5428 fcbd
00000250: 6fae 2fbd 5c3b c83d cc9d 1bbe b6a6 b43d
00000260: 172d e9ba 0a84 e3bd 028d aa3c d95b 5abd
00000270: cecc 953d 140b c23d a8e3 f2bd 8eae 91bd
00000280: f7d9 f6bd 37d6 903c 9f5f 07bc 1e8d 2b3c
00000290: 9b32 fe3d e831 fb3c 00f9 f13c 1d1a f43c
000002a0: a3f7 bfbc 55db 223e e1e5 4b3e 0225 69be
000002b0: ea86 ccbd 7e01 8d3d a431 933d d2db e03b
000002c0: 2ea8 ea3b a9dd 82bd e289 b2bd 1c93 013e
000002d0: 0726 8fbd e9e7 eebd 5437 5d3d 4ebf 5abe
000002e0: f81a 7d3d 4168 bd3d 9ec7 263d bbce 0b3d
000002f0: cc69 113d 9c94 383d 6332 8b3b a480 d8bd
00000300: 9743 8cbd f561 ce3c ac0f 3dbd bcd8 a83d
00000310: 0048 ecbd 40a1 50be aac3 06bc a2a5 19bd
00000320: fbf1 7fbd 1591 673d 0382 5e3e 1a87 873c
00000330: f6ac 1d3e da23 583e d973 01be 2732 36bd
00000340: a539 813d be61 9c3d 3cc6 b0bd e06c 703e
00000350: d3d9 1e3d 052d 68bd 07db 97bd b7f1 46bd
00000360: 97b0 d23d 4cbf 1bbe 743f e8bc dcc0 a43d
00000370: 305b 1cbe a43a 2ebc 7766 b1bd c11c 7bbd
00000380: 06fa fdbd 96fa 8dbd e40a 58bd f9da e83d
00000390: 0c1f 16be 0e80 dabd 2768 40bc d7d3 dfbd
000003a0: 273b b53d 05af 8fbc 4958 8b3d 893d 30bd
000003b0: 3148 b53d 965b a23d 8d37 033a 1a74 6f3d
000003c0: 61be febd bf71 91bd 44dc 45bd 0076 ad3d
000003d0: 2936 843d 56c1 97bb 9fa7 733c 990f eabd
000003e0: 2f32 f3bd db4b fa3c 69b5 c9bd ef51 593d
000003f0: 2598 07be a8b5 02bc cfa2 9e3c bcd0 eabc
-0.038286224 0.06163124 0.06394245 -0.058584593 0.033498377 0.04513403 -0.05492942 -0.052348834
-0.096432865 0.06761229 -0.031010466 -0.019029409 0.013081847 0.052525833 -0.080540724 0.12217676
-0.08995244 -0.01482107 0.000986064 -0.067288585 -0.13917634 -0.035953864 -0.14980221 -0.021267444
0.052057125 0.1047377 -0.06633573 -0.15252829 0.037443615 -0.06329446 -0.11770094 0.0879491
0.059447594 -0.056802038 -0.10482339 -0.022700612 -0.009682864 -0.07393679 -0.1453826 -0.17797025
-0.09594612 -0.05624695 -0.014276318 0.077140845 0.031432938 0.13927855 0.035113454 -0.19084348
0.083935715 -0.022910215 -0.10755466 0.019121198 -0.054722473 -0.12350854 -0.15716802 0.024566038
-0.08737666 -0.08529379 0.044934157 0.051230606 -0.18573454 -0.19614054 0.06342237 -0.00752535
-0.20350797 -0.052791722 -0.08986948 0.0035750847 0.043272607 -0.023111293 0.092177175 -0.02127831
-0.071967416 -0.020604154 0.020059962 0.046408962 0.07230946 0.11210843 -0.0059364666 -0.04485914
0.064101785 -0.037346557 -0.047143094 -0.1256199 -0.030658271 -0.058417037 -0.09348259 -0.015578804
0.01703665 -0.08583751 -0.08858881 0.046892643 -0.10442597 -0.06872212 0.0061050104 -0.08731836
-0.08832055 0.09484671 0.0077169808 -0.05759008 0.057189256 -0.02647327 -0.068944275 -0.009777043
-0.097691365 -0.1239681 -0.02508847 -0.07884933 -0.08401198 0.07194244 -0.07869874 -0.0909616
-0.14553265 -0.08343298 0.053540908 0.058756977 -0.003464309 -0.12765816 -0.0021868173 -0.116706416
-0.1954812 -0.06459703 0.08743754 -0.018140668 0.0013379407 -0.011280037 -0.029035697 -0.09253271
-0.03804418 0.102877125 -0.04193206 0.0055340827 0.06134533 -0.08766211 -0.0573314 0.045354016
-0.08760163 -0.03719169 -0.109771065 -0.0014240339 -0.12579967 -0.0040066075 0.0907993 0.03885152
-0.01675693 -0.05239295 -0.081297696 -0.123123795 -0.042890962 0.09776947 -0.15196913 0.0882086
-0.0017789927 -0.11109169 0.02081919 -0.05331025 0.07314454 0.09474769 -0.11859828 -0.07113372
-0.12053292 0.01768027 -0.008262544 0.010470657 0.12411996 0.030663446 0.029537678 0.029797608
-0.023433512 0.15903981 0.1991191 -0.22768024 -0.0998667 0.0688505 0.071872026 0.006862142
0.007161162 -0.063899346 -0.08717705 0.12653774 -0.06989675 -0.11665327 0.054007843 -0.2136204
0.061793298 0.092484005 0.040717714 0.0341327 0.035501286 0.0450636 0.00424795 -0.10571411
-0.06848829 0.025193194 -0.046157524 0.08244464 -0.115371704 -0.20374012 -0.008225361 -0.037511475
-0.06248663 0.056534845 0.21729283 0.016543914 0.1539801 0.21107426 -0.12641849 -0.044481423
0.06309823 0.0763583 -0.0863156 0.23479033 0.038781952 -0.05668356 -0.07414823 -0.04857036
0.10287588 -0.15209693 -0.02835057 0.080445975 -0.1526916 -0.010634098 -0.08662122 -0.06130672
-0.12401204 -0.06932561 -0.05274476 0.11369891 -0.14660281 -0.10668956 -0.011743582 -0.10929077
0.08849173 -0.01753951 0.068039484 -0.043027434 0.0885166 0.07927625 0.0005005531 0.058460332
-0.12438656 -0.071017735 -0.048305765 0.08469772 0.06455643 -0.0046312017 0.014871507 -0.11428756
-0.11874806 0.030553749 -0.09849054 0.053056654 -0.13241632 -0.007977881 0.019364743 -0.028663985

net.4.bias f4 [50]
00000000: 3ba8 0cbe 0db4 5bbd 800a 16be 5057 4b3c
00000010: 9ee3 b83b 2d86 7cbe 1f68 343e b32c 0f3e
00000020: bb02 15be 905e 393e 63fe bfbd 5691 44be
00000030: 2390 20be e169 d6bb a7ee 09be 6b98 073e
00000040: 239e 1fbe 7f3c 57be 1713 6c3d b33c b5bd
00000050: 2744 30bb ff91 10bd 75a5 f2bd 81e1 a4bd
00000060: e55f 1ebe 1ac7 9d3d 426a e1bd a711 c43d
00000070: b41a d6bd b22a b3bd 0021 993d c295 dbbd
00000080: 4e3f b9bd 5d8c 30bd d08e b0bc 0108 4cbe
00000090: 055c 38be 7d9c 38be 7fb5 4bbe bafc d7bd
000000a0: 6f67 60be e7c8 213e 7ab6 ef3c e113 5d3c
000000b0: 17a6 01be 6be2 4f3d bea9 06be f157 dd3d
000000c0: 0466 99bd 1d59 093e
-0.1373605 -0.053638507 -0.14652443 0.012410954 0.0056423685 -0.24660559 0.17617844 0.13981895
-0.14551823 0.18102479 -0.09374692 -0.19196066 -0.15679984 -0.0065433835 -0.13469945 0.13241737
-0.15587668 -0.21019171 0.057635393 -0.08849468 -0.002689609 -0.035295483 -0.11847965 -0.08050824
-0.15466268 0.07703991 -0.11006595 0.095736794 -0.10454312 -0.08748378 0.074769974 -0.107219234
-0.090452775 -0.04310261 -0.021552473 -0.19924928 -0.18003853 -0.18028446 -0.19893454 -0.10546251
-0.21914457 0.15799294 0.029261816 0.013493509 -0.12661014 0.05075304 -0.13150689 0.10807789
-0.07490161 0.134129

net.6.weight f4 [25, 50]
00000000: 7c45 993d 51dc d83d 4796 203b 4855 0d3e
00000010: 96ad 30be 8050 433c e820 95bd 8081 3b3d
00000020: 393e e7ba 3759 543d d2e0 07be c032 6cbd
00000030: bc4b 74bd b412 d1ba 6482 63bd aefe f93d
00000040: 7f52 d13d dd43 ba3d f1a7 1bbc ef70 2e3c
00000050: 3047 21bc 8227 64bc 91dc c93b 05ec ecbd
00000060: c550 fb3d 3ad3 bf3d a2cd d1bd 33e0 133e
00000070: 2310 bcbc e5ce fc3c 0185 a9bd 647b 1abd
00000080: 8e1e 013e 0314 09be d8e3 d73c da6b 97be
00000090: ba25 b0bd 5874 5c3d 4bf9 383d a32c e4bd
000000a0: b953 ebbb 3cdc 99bc c7de 75bd 4922 7dbd
000000b0: 79e7 35bd c591 3e3d c64f f83c 7c89 b73d
000000c0: 8569 81bd ca65 76bd a27f dc3d abb8 233b
000000d0: f6aa c73d d158 a13c 9a56 76be 1f2b 183c
000000e0: b3c1 d2bc 2923 883b 53c7 0a3d dad3 0f3e
000000f0: 586b 1abc b1b8 1cbd f451 e4bc 0938 ebbd
00000100: 23af a33d be9e c5bd bad6 d9bd 5241 883c
00000110: 5364 2a3d 8ce5 693d 0ae1 2bbe 8665 6dbd
00000120: 42a7 b63d 1f83 743d dd1f 19bd ef24 9cbd
00000130: f513 2d3e 4529 6bbd 1686 22bd cd2d a1bd
00000140: 28c1 fbbd 30be 023d 4d2d d23d 6d88 9e3d
00000150: d51b ac3d c5b2 223d 12e1 98bd 24d7 35bd
00000160: 744a 00bd c96c 6c3d 83a8 a63d d99f 273d
00000170: aa8b 343d 56ae 3dbe a37d a8bc 0289 1fbd
00000180: de07 b53c 8d4a c2bb 37da 6f3d 1a3f 203c
00000190: bc49 a43c ae17 1c3d 1ae9 59be afba 2e3b
000001a0: df8a 293e b07d 3e3d 46b8 ff3d addb bf3d
000001b0: e812 b9bd f233 a93c a26a 07be 5b35 ffbb
000001c0: 7e39 70bc 5cea a1bd 9244 68bd 8a9e 93bc
000001d0: 3ae7 99bd 8661 523d 40c3 493d 6743 4a3d
000001e0: 95b7 fcbb 2cfc 8e3d 4352 1abe a6df 463d
000001f0: 61ed 42be bdb2 7a3d 2a22 45be 1c19 0ebe
00000200: 1df5 603d a4b3 943c 0750 e7bc 6128 1a3d
00000210: 90b7 80be de9c 153d de25 99bc 5348 983b
00000220: b0ea adbe c115 3bbd 789a c738 9a56 7ebd
00000230: 45ba a6bd 0f81 0fbd cb2d aabc 6079 cfbd
00000240: 9b46 1bbe c3e5 c5bd 4218 09bd 3e61 57bd
00000250: 20bb c3bd a246 6ebe 2f5d 1cbd 473b 4e3d
00000260: 28d3 50bd 10fc c1bd a37a 123e fe2b 9fbd
00000270: f0dd 95bd 3eb5 0fbe 4414 e3bd b8d2 0fbe
00000280: a2b7 a73d ad17 25be 3a22 0d3d 76a2 953d
00000290: 8885 d7bc 8fbe 0c3d f08b adbd b537 ca3d
000002a0: 0bde 783d a7fb cc3d 8040 8abd af8c 9d3d
000002b0: ba5a 833d 19a4 14be c964 bc3b a235 a73c
000002c0: aa38 bebd b5af 433d bdde a73e e670 46bd
000002d0: 3463 41be 1139 d9bd 0391 fd3c ee5c 9d3d
000002e0: e362 eabd 3e52 603d e27a 94bd 8685 193e
000002f0: 84dd eebc ad14 033e 8d0b a03c 5ce9 353e
00000300: ab34 d23d b79e b83d da1e 253c 94f1 67bd
00000310: f489 d1bc 149e 013e e201 10be cd31 a33c
00000320: dfe5 313c 4857 8ebd 89f0 27be 0948 6cbd
00000330: 99d9 b63d 919d 0bbe 3f98 49bd 24c4 78be
00000340: dc4a c5bc 6e85 c2bd c5f0 cf3d 79aa bcbd
00000350: 4342 aabd 3fd6 283a 1a90 6b3e 740d 51be
00000360: e222 80bd f3f8 06be a1c5 fd3d 00e4 3d3d
00000370: 2265 0f3d 69e7 4fbe ad99 3c3c deca 19be
00000380: 8ff8 bebd 20a8 033c cef5 0dbd 7324 2cbe
00000390: 63f8 e53d fc39 f83d 4d28 27be bb5a 15be
000003a0: 3323 cb3c 03c0 12be 7eed cfbd 560a 21bd
000003b0: fe82 e5bd edee d2bd 26b1 bd3d f234 04be
000003c0: 35a4 a3bd 93c6 a0bc 0011 2f3b 833c 803d
000003d0: 8610 c2bd 68b8 5e3c b9ef db3d ff51 093e
000003e0: 0179 193d cb40 ac3c a5f7 1bbe ddd5 febd
000003f0: 1bcf 20bd 4705 f9bc e4da 27bd b101 83be
0.07483956 0.10588897 0.0024503635 0.13802063 -0.17253718 0.011921048 -0.07281667 0.045777798
-0.0017642445 0.051842894 -0.13269356 -0.057665586 -0.05964254 -0.0015951009 -0.055544272 0.122067794
0.10220813 0.09094975 -0.00950049 0.010647043 -0.009843633 -0.013925435 0.006160327 -0.11568455
0.12271265 0.0936646 -0.102442995 0.14440994 -0.022956913 0.030860374 -0.082773216 -0.03771533
0.12609312 -0.1338654 0.026353762 -0.29574472 -0.08600946 0.05382189 0.04515962 -0.11141326
-0.0071816114 -0.018781774 -0.06002691 -0.061800275 -0.044410203 0.046525735 0.030311476 0.0896177
-0.063189544 -0.060155667 0.107665315 0.0024981897 0.09749405 0.019695671 -0.24056473 0.009287625
-0.025727129 0.004154582 0.033881497 0.14045659 -0.009425007 -0.038262073 -0.02787111 -0.11485297
0.07992389 -0.09649418 -0.10636659 0.01663271 0.041599583 0.05710368 -0.16785064 -0.05795815
0.08918621 0.05969536 -0.037383903 -0.07624232 0.16902144 -0.057412405 -0.039678656 -0.07870064
-0.12292701 0.03191966 0.10262547 0.07740865 0.08403746 0.03972127 -0.07464804 -0.044394627
-0.031321004 0.057720933 0.0813761 0.040923927 0.044078507 -0.18523535 -0.02056772 -0.03894902
0.022098478 -0.0059292973 0.058557715 0.00978067 0.02005469 0.03810852 -0.21280327 0.0026661565
0.16556881 0.046506584 0.12486319 0.09368072 -0.09036809 0.020654652 -0.13224271 -0.007788343
-0.014662145 -0.07906029 -0.05670602 -0.018019933 -0.07514806 0.051362537 0.04925847 0.049380686
-0.0077123144 0.06981692 -0.15070443 0.04855313 -0.19035865 0.061205614 -0.19251314 -0.13876766
0.05492126 0.018152066 -0.028236402 0.037636165 -0.25140047 0.036526553 -0.018694814 0.0046472936
-0.33968115 -0.045675043 9.5178315e-05 -0.06209431 -0.08140997 -0.03503519 -0.020773789 -0.10130572
-0.15163653 -0.09662964 -0.0334704 -0.05258297 -0.09557176 -0.23269132 -0.038174804 0.0503495
-0.050982624 -0.09471905 0.14304595 -0.07772063 -0.07317722 -0.14033982 -0.1108785 -0.14045227
0.08189322 -0.16122313 0.03445647 0.073063776 -0.02630879 0.03436142 -0.084739566 0.098739065
0.06075863 0.100089364 -0.06750584 0.07692849 0.06413789 -0.14515723 0.005749319 0.020411316
-0.092881516 0.04777499 0.32787123 -0.048447512 -0.18885499 -0.10606588 0.030952936 0.076837406
-0.114446424 0.054765932 -0.072500005 0.14992341 -0.029158361 0.12800856 0.019536758 0.17764801
0.10263952 0.090146475 0.010078156 -0.05662687 -0.025578476 0.12657958 -0.14063218 0.019921208
0.010858028 -0.06950241 -0.1640035 -0.057685886 0.08928222 -0.13634326 -0.04921746 -0.24293572
-0.024083547 -0.09498106 0.10153345 -0.092122026 -0.0831342 0.00064406166 0.23004189 -0.20415288
-0.06256653 -0.13180904 0.1239121 0.046360016 0.035008557 -0.2030312 0.011511249 -0.15018794
-0.093247525 0.00803569 -0.034658246 -0.1681078 0.11229017 0.12120435 -0.16323967 -0.14585392
0.024797058 -0.14331059 -0.1015272 -0.039316498 -0.112066254 -0.10299478 0.09262304 -0.12910822
-0.079903044 -0.019625938 0.0026713014 0.06261542 -0.09475808 0.013593771 0.10739083 0.13410185
0.037468914 0.02102699 -0.15231188 -0.12443135 -0.03926001 -0.030398024 -0.040980235 -0.25587228

net.6.bias f4 [25]
00000000: db8f 953e f44f 433e ae1b 243d 0a84 3ebe
00000010: 17c0 a23c 7947 5e3e 8da0 d7bc 5048 99be
00000020: 335a 73be 666d f53d f29c 0bbb be83 76bb
00000030: a957 8dbd e951 31be 92cb be3d ee5d 60bc
00000040: c5f4 4fbe e6b7 f7bd 5ce2 10be 81bf 10be
00000050: 7bdb 2b3e 1422 8abd b9ae 63be e9d8 5a3e
00000060: 4985 57be
0.29211316 0.19073468 0.04006546 -0.18605056 0.019866986 0.21706952 -0.026321674 -0.29937983
-0.23764877 0.11983757 -0.0021303263 -0.0037615146 -0.069014855 -0.17316402 0.09316172 -0.01369427
-0.20308216 -0.12095623 -0.14148849 -0.14135553 0.16782944 -0.06744781 -0.2223462 0.21371807
-0.21046938

net.8.weight f4 [6, 25]
00000000: 4104 f23c e00e 9fbd c980 3cbe 0458 0f3d
00000010: dad7 d4bd bcc0 b9bd af32 39be 74a1 ddbc
00000020: 709e 3ebe ac86 cebb 7d07 45bc 6b82 cfbd
00000030: 0a0c 313d 6d28 023e 33e1 a73c f407 1fbe
00000040: f824 a13d 6fa1 a03d 39b5 1b3e a39a 683d
00000050: c3f0 91bd c8b3 ecbd 7f7b e0be 3012 3bbe
00000060: e19d 0fbe 6905 4d3e 99ff 883d 7ff3 8abc
00000070: bf05 a63c 72b7 423d 0022 6b3d de95 013d
00000080: 98e6 febd 294a 043d 413f 94bd 7794 f73c
00000090: 56d5 d53d 1607 d43c e033 d5bc 92e4 873c
000000a0: 7612 6bbe e49f 4b3d 175e 043c 6edc bdbd
000000b0: 7e1e 04bd fc4d 3fbd 8a2d d73d 2ee8 853d
000000c0: 5ae6 04be 1982 123c d8fb 103d 5aca b6bd
000000d0: 14ee 0bbe af56 b8bd 0921 d33d 456d d33d
000000e0: 2fb9 723c 465e 0abe 2768 933d 191f 79be
000000f0: c90c 133c f669 e33d a63b ee3d f978 d9bd
00000100: 79bd 1fbd 1f3a 45be e4a5 06be a50c 733b
00000110: 636b 86bd 6a64 12be 04c5 683d 14e3 d8bc
00000120: 5f1d 9ebc f65d 9a3c 8a15 5dbe 3d01 d33d
00000130: b8d2 343d dcbd 54bd 90d6 8cbc 4525 9f3d
00000140: 37ec 323d 6211 4bbe 3cb8 a7bd 4894 6abd
00000150: 245f f9bc 2d0e 833c 2149 0bbe a548 3cbb
00000160: f5f8 3cbe f77b 20be dd35 23be 03aa 963d
00000170: ed49 3dbd 01f5 d43d 2f6f 3abd c2c1 033e
00000180: b62a 40be a3d4 1ebd f429 f7bd 937a 74bd
00000190: e75f 3dbd e86f 5f3d 7c5d fcbd be17 c03c
000001a0: 5e49 a8bd c097 c03d 8128 c1be 2724 babd
000001b0: e594 26be 6f93 17be 3f3b d7bc 841e 7dbd
000001c0: 91e2 053e 240d 21be abbe 283d 5d36 edbd
000001d0: ab1c c53d 1d9e 213d ba6d d43d 4570 e7bd
000001e0: 5bd0 c8bd ec21 e9bd fc6a 96bd ed70 303d
000001f0: 4373 6bbd 1f02 363c 69d1 18bd 3025 0a3e
00000200: e8dc 0c3d d167 0f3e 260d b43a 9282 0ebd
00000210: 31f1 4dbe 5948 bf3d 2081 17be 8760 0cbd
00000220: 4650 46bd 9176 cd3d 7918 fe3d fff7 8e3c
00000230: d6f3 92be 9c69 3cbe 81e6 0d3d 6824 54bd
00000240: c842 93be 6e7f 1bbd 8586 903d 4ac2 bfbe
00000250: 23d4 c63c aa34 7b3d
0.029543044 -0.07766509 -0.18408503 0.034996048 -0.10392733 -0.09069964 -0.1808574 -0.027054526
-0.18615127 -0.006302675 -0.012025711 -0.10132297 0.043224372 0.12710734 0.020493126 -0.15530378
0.07868379 0.07843291 0.1520585 0.056788098 -0.07126 -0.11557728 -0.4384422 -0.18268657
-0.1402507 0.20021595 0.066893764 -0.016961811 0.020266412 0.04753823 0.05740547 0.031637065
-0.12446326 0.032297287 -0.07238627 0.03022216 0.10441081 0.025882285 -0.026025712 0.016588483
-0.22956261 0.04971303 0.008079073 -0.09270559 -0.032255642 -0.04670523 0.10506733 0.065384254
-0.12978497 0.0089421505 0.035396427 -0.08925314 -0.13665038 -0.090009086 0.10309035 0.10323576
0.014814659 -0.13512525 0.071976 -0.24328269 0.008975216 0.11104195 0.11632471 -0.10618777
-0.038999055 -0.19260453 -0.1314922 0.0037086394 -0.06563451 -0.14296117 0.056828514 -0.026475467
-0.019301115 0.018843632 -0.21590248 0.103029706 0.04414627 -0.051938877 -0.017192155 0.077707805
0.043682303 -0.1983085 -0.08189437 -0.05727032 -0.030440874 0.01599797 -0.13602115 -0.0028729823
-0.18454345 -0.15672289 -0.15938516 0.07356646 -0.04621308 0.10398293 -0.04551619 0.12866881
-0.18766293 -0.038777005 -0.12068549 -0.05968721 -0.046234038 0.05455008 -0.12322518 0.023448821
-0.08217119 0.09403944 -0.37726215 -0.09088927 -0.16267736 -0.14802335 -0.026273368 -0.06179668
0.1307471 -0.15727669 0.04119746 -0.115826346 0.096246086 0.03945743 0.10372491 -0.113007106
-0.09805366 -0.11383423 -0.073446244 0.043076444 -0.05748297 0.011108904 -0.037309084 0.13490748
0.03439036 0.14004447 0.0013736829 -0.03479249 -0.20111538 0.09339971 -0.14795351 -0.034271743
-0.0484164 0.1003238 0.124070115 0.017452238 -0.28701657 -0.18399662 0.034643654 -0.051792532
-0.28761888 -0.037963323 0.070569076 -0.37452918 0.024271077 0.06132952

net.8.bias f4 [6]
00000000: 3034 6dbe e104 e1bd 3bc3 57be 5900 763e
00000010: d836 d43d 4162 b9be
-0.23164439 -0.10987259 -0.21070568 0.2402357 0.10362023 -0.36207774
